SnakeAi/model/model.pth (torch, 16787 bytes, 4 tensors)

linear1.weight f4 [256, 11]
00000000: aaf6 5ebc c51c 1fbe baef 6ebe 23f7 16be
00000010: 1ce5 aebd e990 b9bc 8702 15be 057f 64be
00000020: 0579 193e 0501 7ebe 9754 853d dce6 7d3e
00000030: 6bc3 cdbe da3d 023f 9370 37be cd20 113e
00000040: 0388 023e 0a36 07be 8d31 1e3e 29e6 843d
00000050: 2c29 25be 412a 003d ab33 083f 4974 e2be
00000060: 29cc a9bd 99b5 e3bc f2ed a3bd 4acf ca3d
00000070: 981b 5ebc 809f 9cbc d93a 613e 8a26 763b
00000080: 7d80 ebbd 80f3 06be 1ea3 86bd 0478 91be
00000090: f678 0e3d f27b 843e 1d2b 9a3e 74c3 8c3e
000000a0: 7016 5cbe 3793 6bbe 3236 64bd 7a74 0ebe
000000b0: e0bd 523d 7658 363e 22a9 1ebe 10df 493e
000000c0: 3aef 96be 9f13 0abe 1055 ff3e 1028 77be
000000d0: c319 7e3e 953c ddbd 975c bcbe 7e15 0ebe
000000e0: 5171 2e3e 86ee fb3e 4753 38be 0296 9b3c
000000f0: c8fe 363e 8464 14be 2fc4 153d b9c2 40be
00000100: a907 5c3e 871e 43be 5155 993e a926 a1be
00000110: b5e8 d1bd 6822 5e3e 729e 1b3e 9f61 b4bd
00000120: 1dd8 713e f218 b53e 922b 67bd 3572 3a3e
00000130: dfa4 17be 061e 87bd 38aa 87be 37f0 2d3d
00000140: 21d9 54bd 4bcc 0e3c cd00 913e 6e27 c3bd
00000150: f21a 64bd a566 b4bd 9241 15be 6b69 73be
00000160: 2a51 d8bd cbea 3ebe e286 203e fff5 26be
00000170: 654a 0fbe afc3 f0bd 49cb 12bf a084 3abe
00000180: e22e abbd 197f 5abe 9999 af3e 6534 8c3d
00000190: 9737 cbbd f46c 7cbe ab96 25be 6fa7 89be
000001a0: 4aad 793e 0dcb f4bd b50d 96be d166 0abf
000001b0: 11a2 993e 5377 95be 36a2 46be 44c4 923e
000001c0: 9c06 0f3d 1151 473e 464e 173e 2a76 433e
000001d0: 78e6 58be 3920 143d 6813 c5be a80e c03d
000001e0: 704c 0abe cfbf 90be 9187 9bbe 2a63 233f
000001f0: 5e6b 7bbe cc04 e33b c889 a0be 2b7d 613e
00000200: cc6a 573e a625 4fbd ee6a 5cbe 0c54 443d
00000210: 621a fa3e 2492 8abe 6d95 d83e c68a 19be
00000220: eac9 38be 7b6d f0bd d689 8f3d e460 5b3e
00000230: e361 9e3d afc3 5c3d de6a 533d bd0f dd3d
00000240: a121 b43e b818 c9be 34ae 143d ff7b 9dbd
00000250: ee28 03bf a7ac 513e 0465 a6be ce76 b8bd
00000260: 6a6a a73e 33bd d43d 39ec 013f 8e6a 00bc
00000270: 4fce d2be 9d2f 48bd b715 f338 ebe3 4a3e
00000280: cee3 d9bd 6359 ba3e c042 d63d 8d9b c83d
00000290: d63b 863d 3a91 93be 302b 763e defa 963d
000002a0: 3a11 eebe 89dd 013e 1825 0c3e ae71 513d
000002b0: a58b dcbe 6dfe 08be d93b dd3d 5ec7 ce3c
000002c0: d6e9 903e 027f 9ebd f9ed fe3e 523d d3bd
000002d0: fc8f 303e aba6 4f3d 1800 c3bd 7004 693e
000002e0: a15a 45bd 6734 55be 2ee9 113e 6ddc 4d3e
000002f0: cffc e1be 1f7e 083e 11ab 91be e91f bebe
00000300: 9d03 413e 952d aebd 5976 4b3e 56c4 a53e
00000310: 2fbb 7fbe 5adb e4bc a8dc 393e 823e 80bc
00000320: 1701 a13d 6ddb 23be 2694 103e 32a9 87bd
00000330: 1f73 313e 398e 4f3e 90a7 883e 535a e83c
00000340: 9410 8d3e c984 ffbd d77d b23e c233 a4be
00000350: e165 34be c473 99bd 2627 c5be d574 86bd
00000360: dfdf 45be ccfd e8bc 1994 6b3e 6f8c 823e
00000370: b590 793e bff5 813d 5778 97be 6f63 34be
00000380: 7db3 a93e 4457 84be d2f0 f2bd d062 29be
00000390: c7fb e3be 0060 0d3e 8763 afbe bd10 093f
000003a0: efb3 dbbd 89bd 7bbe c16a 283d fb6d 493e
000003b0: e759 893e ff36 c83d 172c d43d 6e85 033e
000003c0: 70f9 efbd 64d2 023c c079 31be 3e7b 42be
000003d0: f079 c43d fa28 353e 0952 193e fe0e 303e
000003e0: 006c 5fbe 8876 243d 5bc4 d83c 720c e63d
000003f0: ee8b aabe 6fe8 3dbe 3f9f 383e 74eb e7bd
-0.013608614 -0.15538318 -0.23333636 -0.14742713 -0.08539793 -0.022652106 -0.14551745 -0.22314079
0.14987572 -0.24805076 0.06510275 0.24795097 -0.40188155 0.5087563 -0.17914037 0.14172669
0.12747197 -0.13204208 0.1544859 0.06489212 -0.16128987 0.031290296 0.5320384 -0.44229344
-0.082908936 -0.027796553 -0.08004369 0.099028185 -0.013556384 -0.019119024 0.21995105 0.0037559592
-0.114991166 -0.13178825 -0.06574081 -0.28411877 0.034783326 0.25875813 0.30111018 0.2749287
-0.21492934 -0.23005377 -0.055715747 -0.1391162 0.05145061 0.17807183 -0.15494207 0.19713998
-0.2947939 -0.13484047 0.49869585 -0.24136376 0.24814515 -0.10802571 -0.3678939 -0.13875386
0.17035414 0.49205416 -0.18000518 0.018992428 0.17870629 -0.14491469 0.03656405 -0.18824281
0.21487297 -0.19054614 0.29947904 -0.31474808 -0.102494635 0.21692812 0.15197161 -0.08807682
0.23617597 0.35370594 -0.056438036 0.18207629 -0.14808987 -0.065975234 -0.26497054 0.042465415
-0.051964883 0.008715699 0.28320923 -0.09529005 -0.05568976 -0.088086404 -0.14575794 -0.23770683
-0.10562356 -0.18644254 0.15676454 -0.16304778 -0.13993223 -0.11756074 -0.5734144 -0.18214655
-0.083585516 -0.21337546 0.34296873 0.06845931 -0.09922712 -0.24650937 -0.16170757 -0.26885554
0.24382511 -0.11952791 -0.29307333 -0.54063135 0.3000646 -0.291926 -0.19397816 0.28665364
0.034918413 0.19464518 0.14775953 0.19088045 -0.21181667 0.036163542 -0.38491368 0.093777955
-0.13505721 -0.28271338 -0.30376866 0.6382319 -0.24552676 0.006928062 -0.3135512 0.22020404
0.21036834 -0.050573014 -0.21525165 0.047931716 0.48848253 -0.2706462 0.42301503 -0.14994344
-0.18045774 -0.11739632 0.07008712 0.2142368 0.07733514 0.053897556 0.05161559 0.107940175
0.35181907 -0.3927667 0.036298946 -0.07689666 -0.5123433 0.20476018 -0.32498944 -0.09007035
0.32698375 0.103876494 0.5075107 -0.007837905 -0.41173026 -0.048873533 0.00011591188 0.19813506
-0.106391534 0.36396322 0.1046195 0.09795294 0.065543815 -0.28821737 0.24039912 0.07372068
-0.46497518 0.12682165 0.13686025 0.051133804 -0.4307529 -0.13378306 0.10802431 0.02524155
0.28303403 -0.077390686 0.49790934 -0.1031443 0.17242426 0.050696056 -0.09521502 0.22755599
-0.048182134 -0.20820771 0.14249107 0.20103617 -0.4413819 0.13329361 -0.28450826 -0.3713372
0.18849035 -0.08504788 0.19869365 0.32376355 -0.24973749 -0.027936626 0.1815058 -0.015654806
0.07861536 -0.16001673 0.14119014 -0.06624068 0.17329071 0.20269097 0.2669034 0.028363382
0.2755171 -0.12476499 0.34861633 -0.32070738 -0.17616989 -0.07492784 -0.3850643 -0.06565253
-0.19323681 -0.028441332 0.23005714 0.25497767 0.24371608 0.063457005 -0.29584 -0.17616056
0.3314475 -0.25847828 -0.11862339 -0.165416 -0.44528028 0.13806152 -0.3425562 0.53541166
-0.10727679 -0.2458402 0.041117433 0.1967086 0.26826403 0.09776115 0.10359972 0.12843868
-0.11717498 0.007984731 -0.173316 -0.18992326 0.0959357 0.17691413 0.149727 0.17193219
-0.21818542 0.040152103 0.026460817 0.112328425 -0.33309883 -0.18545698 0.18029498 -0.11324206

linear1.bias f4 [256]
00000000: 8aea 48be dfdc 293c 5b89 0abe 5592 91be
00000010: 0f80 d8bd bc85 51be 7688 02be e3fb 91be
00000020: 66bf 3b3e b885 cf3c 8b0d c83d b27e 5a3e
00000030: 1cc0 d03d 51cb 253e 312e cf3c 6135 9b3e
00000040: ecb8 073e 9042 023d 06ee 063d 6c4a 84be
00000050: 09ba 38bd 6647 17be 874b 263e 69b5 733e
00000060: 7d83 47be 1823 5dbe 29ac a3bc e1e7 86bd
00000070: 55ca aabc 2ad0 653e af15 c3bd 0ecb 6cbe
00000080: 56e6 bfbd d3c5 543e 606b 9b3d 12a3 bcbd
00000090: 9d38 e33c db78 5fbe c12c 21be 70b3 063e
000000a0: 6add 3e3d 2df4 1dbe 2cfb 733e 048d a63d
000000b0: 7a0c 4abd 7b3e 2dbe 6051 cbbc 9d72 10be
000000c0: 59cb 153b b1ed 6bbd 15cb 2a3d ecb7 21bd
000000d0: f868 5f3e 9a28 713e 40fb 06be 6315 82be
000000e0: 9238 603d 77d2 de3b 9fe8 3cbe cb0e 65be
000000f0: 692b 913d bfe1 9f3e ae80 823e 90a4 123e
00000100: ab50 4e3c fe8d aabe 5666 d73d 1d7f 343e
00000110: f322 d93e cbac 4d3d 8789 c5bd 3085 e03c
00000120: c3ed ba3e f7db 903e 7c4f cb3d 8a5b 34be
00000130: ea6a 5a3d 1929 003e d221 703c 508f 9a3d
00000140: 097d 6ebe 6b1b bebe a499 33bd 7cb9 1a3e
00000150: 7139 20bc 9b0d 513e 6be7 0abe 306e f7bd
00000160: 46c2 0cbd 45ef dc3d 30bf d4bd 9491 f0bc
00000170: b91b 2b3e 77d4 a1bc 4907 883e 0af4 b33e
00000180: 2c82 1a3e 5404 3fbe a79b 47be 25ec d43c
00000190: 06e3 86bd a215 893c 8482 51be 42f1 74be
000001a0: 1eb1 833d 5128 01be 813d e2bd de22 443e
000001b0: 5524 0e3d c979 fcbd 7c3d f2bd d251 933e
000001c0: 4737 d53d 7446 23bb fce4 663d 79b2 033e
000001d0: 93d3 8b3d 7ed8 343e 6d07 b4bd 887b 91be
000001e0: 6fa9 fdbb be5e ad3d b996 72be 490f 19bd
000001f0: 62e9 06be e25f d4bc 04ef 283e d2dd 123e
00000200: deab 183d 3c08 0c3e 390b 87bd 9a37 8abd
00000210: 6a18 9f3d eefa 8bbe 1d3f 843e 7478 3cbc
00000220: 73e3 6cbd 3ccd 573e f601 84bc 4306 b03d
00000230: 6c04 00be 50be 303e f186 4b3e 859a 093e
00000240: 5e4c 3b3e 7a86 a8be 4784 7cbe 91ae 7cbe
00000250: e0db 903e 904a 163c 0753 8dbc 99bd 673d
00000260: 9499 223d 62cb d4bd f0c2 56be 793b e33d
00000270: dad6 c8bd 40f0 b43d 260a c43d c5c3 5ebe
00000280: 9fac 78be 54c9 a9be 5b89 173d 8c81 6c3e
00000290: 404b 2dbe 037a 5d3e 5dc8 7abe 6535 b5bd
000002a0: dc9b 6dbc e38a 06bd 1d43 933e 3afc fdbd
000002b0: 1d9f 433e c199 5fbd 1537 a0bd 10c0 dfbd
000002c0: 36f7 a53d fba4 af3b 7c8c c83e 17c1 263d
000002d0: b261 0bbc e7e6 073d 868a c73d 76bb 453d
000002e0: d571 8abe d5d2 5cbe 5df0 373e 8ed2 1bbe
000002f0: a5d8 7cbe de77 68be 812b b33c 423d 38bd
00000300: 34b7 3abd 4e14 cc3d 1ebe 9bbd 0f5f f43a
00000310: 8a14 b6bc 5521 583c 5274 89be 44f2 203d
00000320: ef54 943d ebd0 6abe c055 723e 527b de3c
00000330: 5e66 2cbe 7bcd 9ebb 15dc 9bbe 294c 27bd
00000340: c0e3 fa3d 1842 07be 8dc1 d13d e329 963e
00000350: 5e70 e1bd 1541 0ebe 3eb4 25be 046d b73e
00000360: dfc9 dbbd 9ce4 613d 4597 293e b084 6d3d
00000370: 8742 0bbe e0b1 1e3e ecf4 0bbe b884 963d
00000380: 9748 3a3e 7101 7ebd 9f34 613e 930e 84be
00000390: 2ed1 783e 9f19 21be 13f4 ee3b ff90 09be
000003a0: aa32 3d3c b8ee b13d 05d7 40bd 74e6 1fbd
000003b0: 0036 69be 4ac8 4c3e 54ca 24be 30ae 593e
000003c0: 2d51 35bd 5c4d 49be 910a 99bd 59d7 38bd
000003d0: fa05 35be 6a0d d0bb 684e 0b3d 38b8 ddbb
000003e0: 4455 d3bd 604a bc3c c6cb 95be e6e1 043e
000003f0: 5ef6 5fbe 280b 083e 8adf fa3c b4a0 0b3e
-0.1962072 0.010367601 -0.1352896 -0.28431955 -0.105713 -0.20461172 -0.12747368 -0.28512487
0.18334731 0.025332317 0.09768208 0.21337393 0.10192892 0.1619084 0.02529058 0.30314162
0.13254136 0.03180176 0.03294184 -0.2583803 -0.045099292 -0.1477333 0.16239749 0.23799671
-0.19483753 -0.21595418 -0.019979553 -0.06587196 -0.020848433 0.2244269 -0.0952562 -0.23124334
-0.09370105 0.20778589 0.075888395 -0.09210791 0.027736956 -0.21823446 -0.15739729 0.13154387
0.046597876 -0.15425177 0.23826283 0.08132365 -0.049328305 -0.16918366 -0.024819076 -0.14106221
0.00228568 -0.057599727 0.04169758 -0.039482042 0.21817386 0.23550645 -0.13181782 -0.25406942
0.05474145 0.0067999917 -0.18448113 -0.22368924 0.07088358 0.31226918 0.254888 0.14320588
0.012592475 -0.33311456 0.10517566 0.17626615 0.42409477 0.050213616 -0.09645372 0.027407259
0.36509523 0.2829282 0.0992727 -0.17613044 0.053324617 0.12515678 0.014656501 0.07546866
-0.23289885 -0.37130293 -0.043847695 0.15109819 -0.00977932 0.20415346 -0.13564841 -0.120815635
-0.03436496 0.107878245 -0.103880286 -0.029366292 0.16709794 -0.019754631 0.26568058 0.35147125
0.15088719 -0.18653995 -0.1949297 0.025991509 -0.0658627 0.016733948 -0.20459944 -0.23920158
0.06430267 -0.12613036 -0.11046887 0.19153926 0.034702618 -0.12327916 -0.118281335 0.2877336
0.10410934 -0.002491382 0.05637072 0.1286105 0.06827464 0.1766071 -0.08790479 -0.2841456
-0.0077411453 0.08465336 -0.23690309 -0.037368093 -0.13174966 -0.025924627 0.16497427 0.1434243
0.03727328 0.13675016 -0.065939374 -0.067488864 0.077683285 -0.27339882 0.25829402 -0.011503328
-0.0578341 0.21074384 -0.016114216 0.08594944 -0.12501687 0.17260098 0.19875695 0.13437851
0.1829085 -0.32915097 -0.24659835 -0.24675967 0.2829275 0.0091730505 -0.017251505 0.0565773
0.039697245 -0.10390355 -0.209728 0.11095328 -0.09806605 0.088348866 0.09572248 -0.21754368
-0.242846 -0.33161414 0.036996227 0.23096293 -0.16923237 0.21628575 -0.24490495 -0.08848075
-0.014502492 -0.032847296 0.2876214 -0.12401624 0.19103666 -0.05458999 -0.07823006 -0.10925305
0.08103792 0.0053602434 0.3916968 0.04071149 -0.008507179 0.03317919 0.09743218 0.04827448
-0.27039972 -0.21564801 0.17962785 -0.15217039 -0.24692018 -0.22701976 0.02187133 -0.044980295
-0.045584872 0.0996481 -0.07604621 0.0018644052 -0.02222659 0.013191541 -0.26846558 0.039293543
0.07242762 -0.22931258 0.23665524 0.027158413 -0.16835925 -0.0048462725 -0.30441347 -0.040844116
0.12250471 -0.13208807 0.10241995 0.29328832 -0.110077605 -0.13892014 -0.16182038 0.3582536
-0.10731863 0.05514966 0.16561611 0.05798787 -0.13599597 0.15497541 -0.13667649 0.07349533
0.18191753 -0.062013093 0.2199273 -0.2579237 0.24298546 -0.1573243 0.0072922795 -0.13434218
0.011547724 0.0868811 -0.04708006 -0.039038137 -0.22774506 0.19998279 -0.16092807 0.21257854
-0.04426687 -0.19658417 -0.074727185 -0.045127247 -0.17678061 -0.0063492553 0.03401032 -0.0067663454
-0.103189975 0.022984684 -0.2925703 0.12976798 -0.21871325 0.13285506 0.03062417 0.13635522

linear2.weight f4 [3, 256]
00000000: 5f99 98bc e242 b4bd 6da4 49be b09d 723c
00000010: 624e a4be b63f d03d 6e75 24be de50 763d
00000020: 2a49 98be 48c0 8b3e 5565 d03d 2d11 123e
00000030: 75e3 f9bd 2907 adbd fe6b 41be dad1 903e
00000040: 9b96 92bd df66 b1be 91c8 7abd 191e 01bd
00000050: 0537 24be 3110 4dbe d9f5 733e 5666 303e
00000060: 5699 37be e0e4 3f3d 9b05 0abe 0d7c 18be
00000070: d631 19be bd35 f2bc b6ae 263e 3f00 5d3e
00000080: 5e57 31be 5d24 783e 7ccd 4cbe 8d7c a23e
00000090: 4c7c 87be d0ba a7bb 5d59 2a3e 73bb 26bd
000000a0: e886 d6bd 490a 15be afc7 fbba bd66 4bbe
000000b0: 18dc 3bbd 6bb5 803c 965c 7cbe cdf0 79bd
000000c0: 3e50 65be b5a3 a73d 2ac6 8fbe c010 4bbd
000000d0: 6bfd e73d 4eee d2bd 111e 66be 6dbf 1a3d
000000e0: 883c 39be 7e29 4dbd b9ed 18be 3cab 04be
000000f0: 6cc5 eabb 5daf 9a3e 2e7b 823e 56d2 393d
00000100: 186a 17bf 70d7 e3bd 2e7d dcbd 2cd6 26bd
00000110: 0663 4e3e ed83 393e 32eb 3abd ddc0 a1bd
00000120: bf75 363e 0fa1 fd3b 44a7 02be afbe 90be
00000130: 4cd5 6bbe 7692 a7be faf5 89bd acf5 00be
00000140: dbc3 1bbc 88e8 53bd 6349 32bb baab 95bd
00000150: 73a1 e1bd 6dcf 97bc 9466 893d 6f32 16be
00000160: f5de 12be a993 613e c9ec 943e 2d6c b6be
00000170: 43ee b83c 9b6e 053e 28d3 6cbd a4bf 7e3d
00000180: 0646 6e3c 502f aa3c 123e da3d f84d 33be
00000190: a353 48bd a60b 5d3d c47d eabc 8f24 9fbe
000001a0: e380 b1bd 5925 9fbe 4e3f 63be 795f 05be
000001b0: 6f03 89bd e816 20be 6f7f 61be 97dd 383d
000001c0: cf47 573e 0dc3 5abc ce1b 43bc e222 8b3e
000001d0: c3f3 a83d 5944 283e 4404 3e3e d9bc 5bbe
000001e0: 579b 103e 8587 3d3e 5d6a 0cbe a2b2 223e
000001f0: 2bab 71be 77da e8bd 64cd 3cbc ae04 86bc
00000200: c3ff 3b3e 3007 8bbd 8dc9 2ebd 97ac a3be
00000210: 3282 61bd 8a50 08bd 4147 11be d2ce 5ebd
00000220: e2cd b23c b8ca 61bd 03b7 593e 573e 21be
00000230: 11bd d7bd 2a17 a0bd 4f08 bdbd 7149 2f3e
00000240: 9fa4 72bd 1ddd 9ebd 05e7 3ebc 6ba3 69bd
00000250: a849 cf3d a20a 0e3d 60b9 a9bd bf4e 92be
00000260: a1e7 203c fac2 20be a615 04be 7c26 be3d
00000270: 0a27 47be f464 d83d 6ac6 f8bd 2693 063e
00000280: cb86 393e 90db a1bb c6ef 98bd a642 873d
00000290: 4853 343d d72c 213e f777 1a3e 9b54 d5bd
000002a0: f427 c1bd 333b 8bbd a537 b13d 48e4 9d3e
000002b0: 6969 94bd 98c9 11be 7784 22be fc4a afbe
000002c0: 98bc b4bd db62 153e cd46 183e eab2 9abe
000002d0: 45e8 eb3d 4b42 26be ad16 e1bb cf2e 97bd
000002e0: c2ec b0bd e9a9 bd3d 411f fabb 27e2 443e
000002f0: 33fd 7abe 5145 d9bd bb32 82be 6e34 423e
00000300: eea0 663e 548a eabd f788 72be 738c ed3c
00000310: 30be bdbe e5c0 783d b94f 89be c1ef 8e3e
00000320: 975f f13d 7284 45be e1f3 a83d 1b8c 6a3e
00000330: 3c1c a8be 40a3 c4bd 347e 733d 0b90 873d
00000340: b328 1bbd 10d5 68be ebaf 60be 732a 743d
00000350: e023 ba3d fdb5 b0bd 7c93 923e 6bf4 403d
00000360: a281 3dbe 60e1 bcbb b28d 903e 186e 953d
00000370: 74f6 923c 39a2 803e 2a00 3dbe 1c9f 46bd
00000380: 3813 a03d 0913 9d3c 0d5f 0a3e 99dc 313c
00000390: ede6 ba3d 6d86 62bd de0e 77be 09f4 3a3e
000003a0: d564 6abe e3de f1bd 0ef5 b8bd 0baf d2bd
000003b0: 313a 41be 6561 c63c 6805 81bc faad 803e
000003c0: 8dfe 733e 8e4b 50be 05c4 16be 253e bbbd
000003d0: bc7c 4fbd 4ed7 05bd 0d37 3bbe b4b7 803e
000003e0: 436b febd 4a5e 6ebe 24b5 033e 83b7 89bd
000003f0: fff5 82be 240d 1cbe b843 a2be 5e2f 0a3e
-0.01862782 -0.088018194 -0.1969163 0.014808103 -0.3209105 0.10168402 -0.16060421 0.060135715
-0.2974332 0.27295136 0.101755776 0.14264365 -0.12201587 -0.08448631 -0.18888852 0.28285104
-0.07157632 -0.34648797 -0.06122643 -0.031522844 -0.16036613 -0.20025708 0.23824252 0.17226538
-0.17929587 0.04684913 -0.13478701 -0.14891072 -0.14960417 -0.02956664 0.16277584 0.21582125
-0.17318484 0.24232621 -0.20000261 0.3173565 -0.26462018 -0.0051187053 0.16635652 -0.04070611
-0.1047495 -0.14554705 -0.0019209291 -0.1986341 -0.045864195 0.015711507 -0.24644694 -0.06102066
-0.22393891 0.081855215 -0.28080875 -0.04957652 0.113276325 -0.10299359 -0.22472407 0.037780214
-0.18089497 -0.0500884 -0.14934434 -0.12955946 -0.007164648 0.30211917 0.25484604 0.045366608
-0.5914626 -0.11125076 -0.10766064 -0.040731594 0.20154962 0.18116732 -0.045634456 -0.07898114
0.17818354 0.007740147 -0.1275912 -0.2827048 -0.23030585 -0.32728928 -0.067363694 -0.12593716
-0.009507145 -0.05173543 -0.0027204386 -0.07308145 -0.11017122 -0.018531526 0.06709018 -0.14667676
-0.14342864 0.22028984 0.29086903 -0.35629407 0.02257455 0.13030474 -0.05781856 0.06219448
0.014543062 0.020774513 0.1065637 -0.17510211 -0.048907887 0.053966187 -0.028624423 -0.3108258
-0.08667161 -0.31083182 -0.22192118 -0.13024701 -0.06690108 -0.15633738 -0.22021268 0.0451332
0.21023487 -0.013352168 -0.011908485 0.2717505 0.08249619 0.16432323 0.18556315 -0.21458758
0.14121757 0.18508728 -0.1371245 0.15888456 -0.23600452 -0.11369794 -0.011523578 -0.016359653
0.18359284 -0.0678848 -0.042672683 -0.31967613 -0.055055805 -0.033279933 -0.14187337 -0.054396458
0.021826688 -0.05512497 0.2126122 -0.15746437 -0.105341084 -0.07816918 -0.092301 0.1711786
-0.059239026 -0.07757018 -0.011651759 -0.057040613 0.10121471 0.03467811 -0.082873106 -0.28575704
0.00982085 -0.15699378 -0.12898883 0.09284684 -0.19448486 0.1056613 -0.121472195 0.1314207
0.18117826 -0.004939504 -0.07467608 0.06604509 0.044024736 0.15739761 0.15084825 -0.10416528
-0.094314486 -0.06798401 0.086531915 0.30838227 -0.07246668 -0.14237058 -0.15870844 -0.34236896
-0.08825034 0.14588492 0.14870758 -0.30214626 0.11518911 -0.16236226 -0.0068691582 -0.07381975
-0.08638908 0.092609234 -0.0076331203 0.19226895 -0.2451065 -0.10608924 -0.2542933 0.18965313
0.22522327 -0.11452165 -0.2368506 0.028997635 -0.37059164 0.060730834 -0.26818636 0.27917293
0.117858104 -0.19288805 0.08249641 0.22905008 -0.3283404 -0.0960145 0.05944653 0.06619271
-0.03788061 -0.22737527 -0.21942107 0.059610795 0.09088874 -0.086284615 0.28628147 0.047108095
-0.18506482 -0.0057641715 0.28233105 0.07296389 0.017939784 0.25123766 -0.18457094 -0.048491582
0.07816166 0.019174116 0.13512821 0.010855817 0.09126077 -0.05530398 -0.24126765 0.18257155
-0.22890027 -0.118100904 -0.090311155 -0.10287293 -0.18869855 0.024216363 -0.015749648 0.25132734
0.23827572 -0.20341322 -0.14723213 -0.091427125 -0.050656065 -0.032676034 -0.18282719 0.25140154
-0.12422802 -0.23278156 0.12862068 -0.06724455 -0.25578305 -0.15239388 -0.3169229 0.13494632

linear2.bias f4 [3]
00000000: 4555 9dbc b56f 84bd 0708 42bd
-0.019205699 -0.06466619 -0.047370937
