SnakeAi/model/model.pth (torch, 16787 bytes, 4 tensors)

linear1.weight f4 [256, 11]
0	0xbdc46a3c	-0.09590575
1	0xbec34667	-0.3813965
2	0x3f1cc3c0	0.6123619
3	0xbeb054cb	-0.34439692
4	0xbdf592c0	-0.11990881
5	0xbe6be042	-0.23034766
6	0xbe24c1de	-0.1608958
7	0xbce9a0f9	-0.02851914
8	0x3e3d838f	0.18507217
9	0x3e3775af	0.17915986
10	0x3ea06054	0.31323493
11	0x3e2d724a	0.16938129
12	0xbdab1bc6	-0.08354907
13	0xbd3157cb	-0.043296617
14	0xbd5b6ad5	-0.05356868
15	0xbe7f8834	-0.24954301
16	0xbe5c28b6	-0.21499905
17	0xbe3fbf9a	-0.18725434
18	0x3e258fc6	0.16168126
19	0xbd2ebc10	-0.04265982
20	0xbd9de8fa	-0.077104524
21	0xbe684490	-0.22682405
22	0xbd95e3ab	-0.07318815
23	0x3de2306e	0.110443935
24	0xbe51ebd9	-0.20500125
25	0xbe21e5d2	-0.15810326
26	0xbe3d3cf4	-0.18480283
27	0xbe7bee76	-0.24602684
28	0xbe44f93e	-0.19235703
29	0xbbe5a4a8	-0.007008154
30	0xbc02c017	-0.007980368
31	0xbe0a6d0c	-0.1351816
32	0x3e09935b	0.13435118
33	0x3bd6af46	0.006551656
34	0x3f329b94	0.69768643
35	0xbebfa2ec	-0.37428987
36	0xbe19b157	-0.15009056
37	0xbdfa549c	-0.12223169
38	0xbd534a55	-0.05158456
39	0x3e322301	0.17396165
40	0x3d0597b6	0.032615386
41	0x3e78d514	0.24300033
42	0xbe8256dc	-0.25456893
43	0xbe348153	-0.17627458
44	0xbd9447f3	-0.07240286
45	0x3e8e0d8a	0.27744704
46	0xbdedc23c	-0.11609313
47	0xbea74dcb	-0.3267654
48	0xbf0b48a4	-0.54407716
49	0xbe6c416a	-0.23071828
50	0x3e9ea597	0.3098571
51	0xbeff0b52	-0.49813324
52	0x3dbf394c	0.093371004
53	0xbe32305e	-0.17401263
54	0x3e6bcd05	0.23027427
55	0xbe87573a	-0.26433736
56	0x3f13132d	0.57451135
57	0xbd756bac	-0.059917137
58	0x3ec72c3e	0.38900942
59	0x3e3a1365	0.18171461
60	0xbe839885	-0.257023
61	0xbe8cb604	-0.27482617
62	0x3eb0fdd9	0.3456867
63	0x3ebd0f27	0.36925623
64	0xbea0c383	-0.31399164
65	0xbe19ebe1	-0.15031387
66	0xbe419364	-0.18903881
67	0x3e22dc46	0.1590434
68	0xbd4e50b3	-0.05036993
69	0xbe7c8f26	-0.24663982
70	0xbe465ea9	-0.19372047
71	0xbde06736	-0.10957186
72	0xbd061a27	-0.032739785
73	0xbe405c26	-0.18785152
74	0xbd7f1101	-0.062272076
75	0xbe73f185	-0.23822601
76	0x3ddeb3f8	0.1087417
77	0x3e53b146	0.20673093
78	0x3f2308e7	0.6368546
79	0xbd88f30e	-0.06686984
80	0xbe144cad	-0.14482374
81	0xbbee6bf1	-0.007276051
82	0xbe928951	-0.2862039
83	0xbd2a5354	-0.041583374
84	0x3ed590ae	0.41711944
85	0x3eeb1881	0.45917132
86	0x3ec5bb23	0.38619336
87	0x3e384af7	0.17997347
88	0x3db4bd87	0.08825212
89	0x3e0ccea6	0.13750705
90	0x3edfff54	0.43749487
91	0xbec57935	-0.38569036
92	0xbe32fd55	-0.17479451
93	0xbe248f35	-0.16070254
94	0xbd8a6155	-0.06756846
95	0x3ef05f2f	0.4694762
96	0x3e1396b4	0.14412957
97	0x3de6f4bf	0.1127715
98	0x3ec69bfc	0.38790882
99	0xbccc1577	-0.024912579
100	0xbf0d5323	-0.5520498
101	0xbde88f50	-0.1135546
102	0xbecd8267	-0.40138552
103	0x3ac2e84d	0.0014870256
104	0x3ed5c07e	0.41748422
105	0xbe9d7b90	-0.30758333
106	0xbed3faa9	-0.41402176
107	0x3ebead87	0.37241766
108	0xbe9ac65f	-0.3022947
109	0x3ece1b96	0.4025542
110	0xbeff3764	-0.49846947
111	0x3ed1fbe0	0.41012478
112	0x3cc96d06	0.02458812
113	0xbe9ce9e7	-0.30647203
114	0xbe9e6994	-0.30939925
115	0x3d8338e6	0.06407337
116	0xbe911716	-0.28337926
117	0x3ea51da2	0.3224917
118	0x3dbf51c6	0.09341769
119	0x3b830f10	0.0039995983
120	0x3e1bfd5a	0.15233365
121	0xbe858563	-0.26078328
122	0xb9e001f6	-0.0004272607
123	0x3e67b94f	0.22629283
124	0xbe5ec0f2	-0.2175329
125	0x3caba4d0	0.020952612
126	0x3da4426e	0.08020483
127	0xbe315e0c	-0.17321032
128	0x3e902b05	0.2815782
129	0x3da6c163	0.08142354
130	0xbded1315	-0.11575905
131	0x3e029987	0.12753879
132	0x3eabe7ca	0.3357528
133	0x3e58535d	0.2112555
134	0xbf14ebfd	-0.5817259
135	0xbcf31d2b	-0.029676994
136	0x3d2c0796	0.041999422
137	0x3bca81ed	0.006180039
138	0x3dfe0d32	0.124048606
139	0x3e9af4fc	0.30265033
140	0x3e5c309f	0.21502922
141	0x3e75a6c8	0.23989403
142	0x3e866b35	0.26253667
143	0xbc89686b	-0.016773423
144	0xbed361d8	-0.41285586
145	0x3f00a6c1	0.50254446
146	0x3d6a780f	0.057243403
147	0xbead0257	-0.33790848
148	0xbebc522d	-0.36781445
149	0x3e36ec13	0.17863493
150	0xbcfaa2ae	-0.03059515
151	0xbea7cecb	-0.32774958
152	0x3e29fb73	0.16599827
153	0xbeb4cd1d	-0.3531274
154	0xbdfe411d	-0.12414763
155	0xbf1c77a4	-0.6112006
156	0x3e894f83	0.26818475
157	0xbe9b20be	-0.30298418
158	0x3df82f5a	0.121184066
159	0xbef858ea	-0.48505336
160	0x3da07728	0.07835227
161	0x3ea452ba	0.32094365
162	0xbab2cb61	-0.0013640934
163	0xbdd6dc0a	-0.10491188
164	0x3eab3aca	0.3344329
165	0x3b8fef06	0.0043925075
166	0x3cc49256	0.02399556
167	0x3d21f122	0.039536603
168	0x3ee0c0b6	0.43897027
169	0x3edc1f18	0.42992473
170	0xbc1b0c27	-0.009463347
171	0xbeda2048	-0.42602754
172	0xbef78eb8	-0.48351073
173	0xbefd4489	-0.4946635
174	0xbcc03761	-0.023463907
175	0x3eb45ca8	0.3522694
176	0x3e1e1ceb	0.15440719
177	0x3f2d3cc0	0.6767082
178	0xbed7dd3f	-0.42160985
179	0xbdc7a581	-0.09748364
180	0xbea2c26e	-0.31788963
181	0x3bb5ad29	0.005544324
182	0xbd369785	-0.044578094
183	0x3e67c48e	0.22633573
184	0x3dd66058	0.10467595
185	0x3deaad36	0.114588186
186	0xbe173bfa	-0.14768973
187	0xbcc9bb60	-0.02462548
188	0xbe8c33fb	-0.27383408
189	0xbe90cb86	-0.28280276
190	0xbe687e0a	-0.2270433
191	0x3aa90300	0.0012894571
192	0x3d3a68e0	0.045510173
193	0xbd361cf0	-0.04446119
194	0x3df6046c	0.12012562
195	0xbe35eccf	-0.17766117
196	0xbe00c509	-0.12575163
197	0xbe17da4f	-0.14829372
198	0x3da2b977	0.07945531
199	0xbe3c6e0c	-0.18401355
200	0xbdbe0a1f	-0.09279274
201	0xbce8eb87	-0.02843262
202	0xbe54c3f0	-0.20777869
203	0xbe71a140	-0.23596668
204	0xbe423402	-0.18965152
205	0x3e5ad022	0.21368459
206	0x3df11a13	0.117725514
207	0xbe74e554	-0.23915607
208	0xbd891a1f	-0.06694435
209	0x3e6effc1	0.2333975
210	0xbd42412c	-0.047425434
211	0x3c886987	0.016651882
212	0xbdc54782	-0.0963278
213	0xbdad410f	-0.084596746
214	0x3d83695b	0.06416579
215	0xbda2f10e	-0.07956134
216	0x3e90b0c3	0.28259858
217	0x3e8164ae	0.25272125
218	0x3ddad68f	0.10685455
219	0x3e7079a5	0.23483904
220	0x3f017707	0.50572246
221	0xbf004927	-0.5011162
222	0xbdb25365	-0.087073125
223	0x3e60b572	0.21944216
224	0xbcf1d874	-0.029522158
225	0x3e32ebff	0.17472838
226	0xbcd2a446	-0.025713097
227	0xbdf955b4	-0.1217455
228	0x3e72cfd0	0.23712087
229	0x3e1ac956	0.15115866
230	0x3cd298f0	0.025707692
231	0xbdf54473	-0.11975946
232	0xbe39bcac	-0.18138379
233	0x3ef91cb6	0.48654717
234	0x3e498020	0.19677782
235	0x3e84ecd8	0.25961947
236	0xbe6b42da	-0.2297472
237	0x3d8db5e4	0.069194585
238	0x3db9664d	0.090527155
239	0xbdccbc62	-0.09996869
240	0xbe93c60e	-0.2886204
241	0x3e539306	0.20661554
242	0x3e221723	0.15829138
243	0xbe5d50e4	-0.21612889
244	0x3cf079f9	0.029355036
245	0x3e4890fc	0.19586557
246	0xbe276d13	-0.16350202
247	0xbec7c86f	-0.39020106
248	0xbec8c384	-0.39211667
249	0x3b94c1df	0.004539713
250	0xbec6c72a	-0.38823825
251	0xbf1b4025	-0.6064475
252	0xbed32ac7	-0.41243574
253	0x3dcc719f	0.09982609
254	0x3edd693d	0.43244353
255	0x3e959620	0.292161

linear1.bias f4 [256]
0	0xbd08ade5	-0.033368964
1	0xbeaea242	-0.34108168
2	0xbdbddf3a	-0.09271093
3	0xbe8ae987	-0.27131292
4	0xbc9598ca	-0.018261332
5	0xbcf84262	-0.030305091
6	0xbe8eec6a	-0.27914745
7	0xbe2c3d18	-0.1682018
8	0xbdea0636	-0.11426966
9	0xbde87e3c	-0.11352202
10	0x3e8c2498	0.2737167
11	0x3d80f0f4	0.06295958
12	0xbea04f74	-0.31310618
13	0x3e088347	0.13331328
14	0xbdd7910e	-0.10525714
15	0xbc29e1f9	-0.0103688175
16	0xbe6fc5e7	-0.23415338
17	0xbe34d6a8	-0.1766001
18	0xbe87c892	-0.2652021
19	0xbe2bb61f	-0.16768692
20	0xbe88def7	-0.2673261
21	0x3e3b08cf	0.18265079
22	0x3e956788	0.2918055
23	0xbe8b7d6a	-0.2724412
24	0xbce65b31	-0.028119655
25	0x3e9d694d	0.307444
26	0xbe447495	-0.19185098
27	0x3e00c989	0.1257688
28	0xbe00562b	-0.1253287
29	0x3ecb584a	0.39715797
30	0xbe1ee04a	-0.15515247
31	0xbe8d1b45	-0.27559868
32	0xbe137d22	-0.14403203
33	0xbe290057	-0.16504036
34	0xbe239572	-0.15974978
35	0x3de147c0	0.11000013
36	0xbec335ee	-0.38127083
37	0x3e377130	0.17914271
38	0xbe870a09	-0.26374844
39	0xbeae0306	-0.33986682
40	0xbed4f9d0	-0.41596842
41	0xbe0aaa9c	-0.13541645
42	0xbde5998e	-0.11210929
43	0xbcccf241	-0.02501786
44	0x3e92cfbc	0.28674114
45	0xbd6815fc	-0.05666159
46	0xbda67a3b	-0.08128782
47	0xbd06dde3	-0.03292645
48	0x3e815501	0.25260165
49	0x3c9cb40c	0.019128822
50	0xbd8bc204	-0.06824115
51	0xbe272321	-0.16321994
52	0xbe940b4f	-0.28914878
53	0xbe03472d	-0.1282012
54	0x3d3a1f63	0.04544009
55	0xbe8be878	-0.27325797
56	0xbecd6ccf	-0.40122077
57	0x3ead60a1	0.33862785
58	0xbceaa0e4	-0.028641172
59	0x3d411811	0.047142092
60	0xbe841a06	-0.25801104
61	0xbe0a2b8f	-0.13493179
62	0xbd7451f9	-0.059648488
63	0xbe2843f1	-0.16432168
64	0x3d86396c	0.06553921
65	0xbe963907	-0.29340383
66	0xbe926b0d	-0.28597298
67	0x3daf8010	0.08569348
68	0xbe34c0f1	-0.17651726
69	0xbdcefc3d	-0.101067044
70	0xbca9e173	-0.020737385
71	0xbe61b129	-0.22040237
72	0x3e0d6096	0.13806376
73	0xbd90bbdf	-0.070670836
74	0x3e944f3a	0.28966695
75	0x3e3f8d66	0.18706283
76	0x3ede1a52	0.43379456
77	0xbe8f2db2	-0.2796455
78	0xbdb6733a	-0.089086965
79	0x3dca0d0f	0.09865772
80	0x3d1765b5	0.03696223
81	0xbc873d5d	-0.016508752
82	0xbb63898d	-0.0034719438
83	0xbebb092c	-0.36530435
84	0xbe41af3c	-0.18914503
85	0xbe7ccbea	-0.24687162
86	0xbba91153	-0.005159536
87	0x3d6dc2d2	0.058047123
88	0xbd1936f1	-0.03740591
89	0xbe4e5bf2	-0.20152262
90	0x3da8bab8	0.08238739
91	0xbe4ea8ac	-0.2018153
92	0xbdaf1a94	-0.08549991
93	0x3bccfcb1	0.006255709
94	0xbe8678fe	-0.26264185
95	0xbea669ec	-0.32502687
96	0xbe417aab	-0.1889445
97	0x3e7db760	0.24776983
98	0x3ede64e4	0.43436348
99	0xbe766896	-0.24063334
100	0xbe90e078	-0.28296256
101	0xbd9559b8	-0.07292503
102	0x3db9f1b3	0.090793036
103	0x3e96228f	0.2932324
104	0xbe058206	-0.13037881
105	0xbdf96efe	-0.12179373
106	0x3ee7e252	0.45289856
107	0xbdf335bd	-0.11875484
108	0xbe18ef77	-0.14935099
109	0xbe8334de	-0.25626272
110	0x3e849ad9	0.2589939
111	0xbe99b6f5	-0.30022398
112	0xbd42e5c7	-0.047582414
113	0x3d828dee	0.06374727
114	0x3d6d8efb	0.057997685
115	0xbdbb59e4	-0.09148005
116	0xbe91a63d	-0.28447142
117	0x3d20b6eb	0.039236944
118	0xbe8d1b54	-0.27559912
119	0x3ec419ed	0.3830103
120	0xbc59b92b	-0.013288776
121	0x3e13d20e	0.14435598
122	0x3e04214c	0.12903327
123	0x3da85ccc	0.082208246
124	0xbe45e147	-0.19324218
125	0xbea4e574	-0.3220631
126	0x3d6d5a8f	0.05794769
127	0xbe371fd3	-0.17883234
128	0x3e3349c0	0.17508602
129	0x3cd1651c	0.025560908
130	0xbcf27825	-0.029598305
131	0x3eef275d	0.4670972
132	0x3de8c287	0.11365228
133	0x3e6f22b3	0.2335308
134	0xbeb7f1c9	-0.35926655
135	0xbe6ae96a	-0.22940603
136	0x3cba12db	0.02271407
137	0x3c03cc8f	0.008044376
138	0x3c4fd415	0.012684842
139	0xbe190896	-0.14944682
140	0xbbd1d70a	-0.0064038085
141	0x3c204ba1	0.009783656
142	0xbe561e29	-0.20909943
143	0xbc489009	-0.012241372
144	0x3dd03c14	0.10167709
145	0x3e48a4c4	0.19594103
146	0xbe95f7b0	-0.29290533
147	0xbccd17e7	-0.025035812
148	0xbe992c9b	-0.29916844
149	0x3e7028e3	0.23453097
150	0x3f3b4d48	0.73164797
151	0xbde0bdef	-0.10973727
152	0xbdaf3b5b	-0.08556243
153	0x3e066537	0.13124548
154	0x3e5e3b01	0.21702196
155	0xbdcbe0b0	-0.09954965
156	0xbdfc7129	-0.12326271
157	0xbe623e1f	-0.2209401
158	0xbe8842b7	-0.266134
159	0x3e499501	0.19685747
160	0xbe09a2f2	-0.13441065
161	0xbea73d41	-0.3266392
162	0xbe873a98	-0.2641189
163	0xbcb33caa	-0.021879513
164	0x3d124753	0.03571255
165	0xbdc86812	-0.09785475
166	0xbe84c449	-0.25931004
167	0xbe9ba219	-0.30397108
168	0x3e2906fb	0.16506569
169	0xbe226a10	-0.15860772
170	0xbd13e723	-0.0361091
171	0xbd28be98	-0.04119739
172	0xbe8aed4a	-0.27134162
173	0xbe74e1d9	-0.23914279
174	0xbd96f813	-0.07371535
175	0x3de3e2b5	0.11127225
176	0xbe6ac93a	-0.22928324
177	0xbd428a07	-0.047494914
178	0xbe7f6b55	-0.24943288
179	0xbe6bfc35	-0.23045428
180	0xbebb6625	-0.36601368
181	0x3ca20f47	0.019782675
182	0x3e6b6428	0.22987425
183	0xbcbd4b43	-0.023107177
184	0x3ea01e50	0.31273127
185	0xbea8a21a	-0.32936174
186	0xbe6ff321	-0.2343259
187	0x3d52ac9b	0.05143414
188	0xbdfb4463	-0.12268903
189	0xbe8e1898	-0.2775314
190	0x3e055889	0.13022055
191	0x3e2c813f	0.16846178
192	0xbd06bbd4	-0.03289397
193	0xbdc8b69b	-0.09800454
194	0x3e8bf69f	0.27336594
195	0xbd276695	-0.040869314
196	0xbe8343e3	-0.2563773
197	0x3cdde554	0.027086891
198	0x3dd9333c	0.10605475
199	0xbe68b3b0	-0.22724795
200	0xbeb5d8d0	-0.35516977
201	0xbd5e7900	-0.054314613
202	0xbdc55883	-0.09636023
203	0xbeb0de07	-0.34544393
204	0xbeaae67a	-0.33378965
205	0x3d7e7337	0.062121596
206	0x3cc3e95c	0.023914985
207	0xbb8525bb	-0.0040633357
208	0xbe517cc7	-0.20457755
209	0xbe24cf79	-0.1609477
210	0xbdf9ccf5	-0.121972956
211	0x3e4cdf5b	0.20007078
212	0xbdf53fbc	-0.11975047
213	0xbea7f5c1	-0.32804683
214	0x3d4a8e0c	0.049451873
215	0xbd69cc09	-0.05707935
216	0xbe67a614	-0.22621948
217	0xbe5452f5	-0.2073477
218	0xbdfce9ba	-0.12349267
219	0xbd86e4f3	-0.06586637
220	0xbcf8c5f4	-0.030367829
221	0x3da2375f	0.079207174
222	0xbe270dfc	-0.16313928
223	0x3d298440	0.04138589
224	0xbdd51a67	-0.104054265
225	0xbe331e69	-0.1749207
226	0x3d1374f0	0.036000192
227	0x3cc900e9	0.024536567
228	0xbdf5b576	-0.119975016
229	0xbe067a0f	-0.13132499
230	0xbdbb2df5	-0.09139625
231	0xbe107bdb	-0.14109747
232	0x3e0de0c4	0.13855273
233	0xbe819339	-0.25307634
234	0xbd3733f8	-0.044727296
235	0x3ec2d9d1	0.38056806
236	0x3dd9490d	0.106096365
237	0xbe2402b7	-0.1601666
238	0x3d4370c0	0.04771495
239	0xbd093a78	-0.033503026
240	0xbe87f269	-0.26552132
241	0xbe9a73af	-0.30166385
242	0xbeca0170	-0.39454222
243	0xbe882fcb	-0.26598963
244	0x3ef1c2b5	0.47218862
245	0x3e7526c3	0.23940568
246	0xbe9159de	-0.28388876
247	0xbcd94911	-0.026524099
248	0xbd6e1db1	-0.058133785
249	0xbe321fb8	-0.17394912
250	0x3e7161c8	0.23572457
251	0xbdec24a3	-0.115304254
252	0xbdee28a4	-0.11628845
253	0xbe6ece9e	-0.23321006
254	0x3db71b41	0.08940745
255	0xbe2c3fb1	-0.16821171

linear2.weight f4 [3, 256]
0	0xbce12753	-0.027484572
1	0x3d428476	0.047489606
2	0xbaafe9cf	-0.0013421121
3	0xbc1af0a2	-0.009456785
4	0x3e5563e6	0.2083889
5	0x3ed5439f	0.41653153
6	0xbcea5fa7	-0.028610064
7	0xbe429f62	-0.19006112
8	0xbe2b1555	-0.16707356
9	0xbe12e422	-0.14344838
10	0x3d49b57c	0.049245343
11	0xbc8d0427	-0.017213894
12	0xbe1547d9	-0.14578189
13	0x3c22046a	0.009888748
14	0xbc033369	-0.008007863
15	0xbf4be62f	-0.7964811
16	0xbba9ae67	-0.005178261
17	0xbbe2aff0	-0.006917946
18	0xbd382900	-0.044960976
19	0xbe54da47	-0.20786391
20	0xbdbfb71f	-0.093610995
21	0x3e504e30	0.20342326
22	0x3e854b9d	0.2603425
23	0xbdf14ddb	-0.11782428
24	0x3bf08d19	0.007341039
25	0x3eef1585	0.46696106
26	0xbf02b767	-0.510611
27	0x3d1df901	0.038567547
28	0xbe02f1cb	-0.12787549
29	0x3e03da68	0.12876284
30	0x3e4001f7	0.1875075
31	0xbdcae38b	-0.099066816
32	0xbe27e881	-0.16397287
33	0xbe1b74bf	-0.15181254
34	0xbe92b3c5	-0.28652778
35	0x3eaf60d8	0.34253573
36	0xbe4e66d2	-0.2015641
37	0x3e209405	0.15681465
38	0xbe42c5dd	-0.19020791
39	0x3c4b165f	0.01239547
40	0xbe304fb3	-0.17217903
41	0x3d19055a	0.03735862
42	0xbeb0b19a	-0.345105
43	0x3e7bb703	0.24581532
44	0x3ed9452f	0.42435595
45	0xbe12b83a	-0.1432809
46	0xbe991664	-0.29899895
47	0xbeae1e7c	-0.34007633
48	0x3e418c13	0.1890109
49	0x3d8b793f	0.06810235
50	0xbef4b08e	-0.4779095
51	0xbd9e1e58	-0.07720631
52	0x3d4d0f00	0.050063133
53	0xbb713d21	-0.0036810117
54	0x3d911d6d	0.07085691
55	0xbd2876c6	-0.041128896
56	0x3c8f3397	0.017480655
57	0x3e845d62	0.25852495
58	0x3b56813a	0.0032730834
59	0xbdeb1eb3	-0.11480465
60	0xbec4f133	-0.3846527
61	0x3dbcf955	0.09227244
62	0xbe09bfc6	-0.13452062
63	0xbe60f4d4	-0.21968395
64	0xbe331964	-0.17490155
65	0x3d26b0aa	0.040695824
66	0xbd8a63e4	-0.06757334
67	0x3d351254	0.044206932
68	0x3d365fe6	0.04452505
69	0xbeb16d70	-0.34653807
70	0xbdcd790e	-0.10032855
71	0xbe313323	-0.17304663
72	0x3e1f048e	0.15529081
73	0xbec3a2ee	-0.38210243
74	0x3ea80ebe	0.32823747
75	0x3e4a8568	0.19777453
76	0x3eb5049d	0.35355082
77	0xbe576088	-0.21032917
78	0xbcb0ad71	-0.021567078
79	0x3e97be8d	0.29637566
80	0xbee61384	-0.44936764
81	0x3ed67d26	0.41892356
82	0xbe1d188e	-0.15341398
83	0xbde91c90	-0.11382401
84	0xbe7295e2	-0.23689988
85	0xbec8a13b	-0.3918551
86	0xbe67ed65	-0.22649153
87	0xbe3cdded	-0.18444033
88	0x3d8c0281	0.06836415
89	0xbefa1277	-0.48842213
90	0x3e8991b2	0.2686897
91	0xbed6fd53	-0.41990146
92	0x3d2a598a	0.041589297
93	0x3f044b14	0.5167706
94	0xbcf492a0	-0.029855072
95	0x3ce2d1f8	0.027688012
96	0xbe72d3ca	-0.23713604
97	0x3ee18e1b	0.4405373
98	0x3ed3ad90	0.41343355
99	0xbd796cce	-0.06089478
100	0xbe0b25cd	-0.13588639
101	0xbc3bd05f	-0.011463254
102	0x3e883632	0.26603848
103	0x3e8334c6	0.256262
104	0xbf16f750	-0.5897112
105	0x3efe4be7	0.49667284
106	0x3e9231e6	0.28553694
107	0xbebfadd0	-0.37437296
108	0xbe90e816	-0.28302068
109	0xbe51faa8	-0.20505774
110	0x3e31f52b	0.1737868
111	0xbeddd812	-0.4332891
112	0xbe1a55c3	-0.15071778
113	0x3da3d9b1	0.08000506
114	0x3e4e3e1b	0.20140879
115	0x3e3cd5d9	0.18440951
116	0xbe91d1f1	-0.28480485
117	0x3c8f10fe	0.017464157
118	0xbe57f15a	-0.21088162
119	0x3ed5cb6d	0.41756764
120	0x3ee41716	0.44548863
121	0x3eb68ec7	0.35655805
122	0x3dcf90e3	0.10135057
123	0x3ee99f3f	0.45629308
124	0xbf45f3ef	-0.7732534
125	0x3d00e0bf	0.031464335
126	0xbf16e040	-0.5893593
127	0x3decba63	0.11558988
128	0x3e802a5d	0.2503232
129	0xbcbf7712	-0.023372207
130	0x3e79a1e7	0.24378167
131	0x3e8b8bc6	0.27255076
132	0x3e51a642	0.20473579
133	0x3e99655c	0.29960144
134	0x3be82bea	0.007085313
135	0xbdbafc8f	-0.09130203
136	0x3ec21923	0.37909803
137	0x3dbf7c8d	0.09349928
138	0x3c18d92f	0.009329124
139	0xbe80af4b	-0.25133738
140	0xbd9773c3	-0.07395127
141	0xbed28138	-0.4111421
142	0xbf1104e2	-0.56648076
143	0xbe587d67	-0.21141587
144	0x3e21b660	0.15792227
145	0x3e262dd8	0.16228426
146	0xbe208e4e	-0.15679285
147	0xbed6b910	-0.41938066
148	0x3c53f0a7	0.012935794
149	0xbe768e9f	-0.24077843
150	0x3e4b12cc	0.19831389
151	0xbe073710	-0.13204598
152	0x3eaaca3d	0.3335742
153	0x3e8a3f76	0.27001542
154	0x3e18cf73	0.14922886
155	0xbdfe6aa0	-0.12422681
156	0x3e5f17d8	0.2178644
157	0xbe7d6016	-0.24743685
158	0xbef56ada	-0.47933084
159	0x3e56d1d9	0.20978488
160	0x3c8ecaa3	0.01743061
161	0xbe46edf7	-0.19426714
162	0x3bc15786	0.005900326
163	0x3e1676a7	0.146937
164	0x3c5dc96c	0.013536792
165	0xbd6bf2de	-0.057604663
166	0xbe93435f	-0.28762338
167	0xbdeed64c	-0.11661968
168	0x3e5a1729	0.21297897
169	0xbec54f9b	-0.38537297
170	0xbed781d6	-0.42091244
171	0x3ea8a0e9	0.32935265
172	0xbba3d82c	-0.005000135
173	0xbdd47a48	-0.10374886
174	0x3f12dd28	0.5736871
175	0x3ebf5ca6	0.37375373
176	0x3d37ed8c	0.044904277
177	0xbf01c8fa	-0.5069729
178	0xbeb1092c	-0.3457731
179	0xbe908ddb	-0.28233227
180	0xbbb1d2ab	-0.005426725
181	0x3eaa5a08	0.33271813
182	0x3dd32d4b	0.10311373
183	0x3c96244b	0.018327853
184	0x3f064c65	0.5246032
185	0xbc43d30f	-0.011952176
186	0xbe7fe5b7	-0.24989973
187	0x3e27c4c4	0.16383654
188	0x3ec5a060	0.3859892
189	0xbe8209e1	-0.25398162
190	0x3dbdfd4d	0.09276829
191	0x3d960930	0.07325971
192	0x3e82998f	0.2550778
193	0xbcd9821e	-0.026551303
194	0x3eee99a8	0.46601605
195	0x3be03426	0.006842154
196	0xbedc3681	-0.43010333
197	0xbd1acc36	-0.037792407
198	0xbee722d9	-0.45143774
199	0xbe541405	-0.20710762
200	0xbdd07cb7	-0.101800375
201	0xbd03a59f	-0.03214037
202	0xbefc9eed	-0.4934
203	0xbb0314a4	-0.0020001316
204	0xbdd9db41	-0.106375225
205	0x3ea8ec6b	0.32992873
206	0xbefcb8ab	-0.4935964
207	0x3e1d2f56	0.15350088
208	0xbcf1860a	-0.02948286
209	0xbcee63e2	-0.029100362
210	0x3c891806	0.016735088
211	0x3e85771e	0.26067442
212	0xbe3d07ef	-0.18460058
213	0xbc93fd7f	-0.018065212
214	0x3d803315	0.06259743
215	0xbef90198	-0.48634028
216	0xbeb755bf	-0.35807607
217	0xbe957f1a	-0.29198533
218	0xbef92e50	-0.48668146
219	0x3ea07daf	0.3134589
220	0x3ea3e0cd	0.32007447
221	0xbc6d04cc	-0.014466476
222	0xbd5c7a52	-0.05382759
223	0x3ea1e4fe	0.3162002
224	0xbed04215	-0.40675417
225	0x3c6bba50	0.014387682
226	0xbea1e3f9	-0.31619242
227	0xbf21ac77	-0.63153785
228	0xbeb861eb	-0.36012205
229	0xbd197535	-0.037465293
230	0x3e373d25	0.17894419
231	0xbdee7859	-0.11644048
232	0xbcbe1e8b	-0.023207923
233	0xbe706fc9	-0.23480143
234	0x3ece489e	0.40289778
235	0x3e44877e	0.19192311
236	0x3e903063	0.28161916
237	0xbd30f0d9	-0.04319844
238	0xbe22e3bb	-0.15907185
239	0xbdfc5b26	-0.12322073
240	0xbf12e48d	-0.5737999
241	0xbee23632	-0.44181973
242	0xbe375de8	-0.17906916
243	0xbd30944d	-0.04311018
244	0x3e464531	0.19362332
245	0x3d84c254	0.06482378
246	0xbe9bb30a	-0.30410033
247	0xbe8d0040	-0.27539253
248	0x3ea04621	0.31303504
249	0xbecdb932	-0.40180355
250	0x3dd4dc90	0.103936315
251	0x3e3d41f2	0.18482187
252	0xbed9b41e	-0.4252023
253	0xbead70c0	-0.33875084
254	0x3e0a7f14	0.13525039
255	0x3b37d3ce	0.002804983

linear2.bias f4 [3]
0	0x3e77d05e	0.2420058
1	0xbb6f1302	-0.0036479835
2	0xbc307eab	-0.0107723875
