PacManBetter/model/model.pth (torch, 605587 bytes, 4 tensors)

linear1.weight f4 [512, 290]
00000000: 36bd 6ebd a36e 8dbb 8dba 34bc a28d be3c
00000010: 45d9 06bd 7bf9 65bd 5822 00bd 2dc2 83bc
00000020: 2d29 f4bc 43ce acbc 8094 493c 32c0 cb3c
00000030: 2e84 073d 67b9 58bd ea00 f73c 9baa 06bc
00000040: 9562 4a3d 44c0 c8bc b3c9 2f3d 98db 57bd
00000050: 6b51 4f3d aa92 e33c 344c 41bd b0d2 31bd
00000060: 925f ba3c 5056 193d 7f30 31bd 80a1 54bc
00000070: ebb2 1b3d 7d50 60bd e73d 283b 1577 6bbd
00000080: c6d4 ea3c 7146 c9bc 20a7 ad3c a8f5 353c
00000090: c329 a8bc 8d42 423d 74da 503c 297b 783c
000000a0: d14a 43bc 1577 eb3c 738e 5cbd b3a9 5bbd
000000b0: ac95 f83c a292 8abc cb39 6abc 1f2b 973c
000000c0: 3564 a7bc 12df 993c 232c 4a3d d957 3bbd
000000d0: 798f d0ba 235a 5b3d afe0 d23b d813 4e3d
000000e0: c885 313d 7f6e fe3c 386f 90bc f5ab 38bc
000000f0: bb3d 9b3c 4362 4d3c 69f6 f3bc 36d5 cdbb
00000100: 5fe4 663d 1b6c bcbc 6a6f a13c 582f ddbc
00000110: 6cbd 3f3d dee4 313c e1fc 353b a494 2ebd
00000120: 2b14 15bd 6955 dd3c e09e 23bd 00aa 723c
00000130: 7f0c 17bd dc1c 48bc 0557 75bc 43f9 5e3d
00000140: 2f02 3d3d 9a34 0cbd e1de 513d e567 6abd
00000150: 7a9e 843c 6879 9a3c cf87 243c 0dfb 833c
00000160: 1cc4 5bbd fa66 303d 0843 19bc 37fd 40bc
00000170: dfc7 12bc 2698 bbbc c543 813c 9b58 01bd
00000180: e444 23bd 4bab d03c 0e08 693d bf42 5bbd
00000190: 5ada 933c 6a5e 4cbc f356 7ebc 0cb9 c7bc
000001a0: 0c77 963c 4e10 29bd 5c76 56bd 1802 133c
000001b0: 0aef 90bc f57f 17bc 24af 55bd ff38 19bd
000001c0: fcfe 5bbd 0367 a5bc ee8e cfbc e0b3 22bd
000001d0: 50c5 d63c 24ee ca3b ac23 d1bc 03a1 f3bb
000001e0: 64ac c73c bef9 1abd da33 983c d6c7 cd3c
000001f0: 3a28 293d 916d 623c e899 5abd ffd8 373a
00000200: bd74 e7bc cc68 ecbb b2c8 d1bc f270 4ebd
00000210: ce34 2a3d 26f7 a2bc 53af 2cbd e1af 9fbc
00000220: d9b1 4a3d 58cf 6abd 6575 b4bc 5fef 36bc
00000230: 33c2 56bd 8375 14bd 9462 fd3c 1d1e 173d
00000240: c698 07bd 1bfc b0bc 4e8b adbc 00a3 38bd
00000250: 48a6 0b3d 01b6 343d 0709 513b 18f2 6dbd
00000260: 6d6a 61bd fbf5 1d3c f92a 793c e338 0ebc
00000270: b9ac f63a e5ed a7bc 6fda b8bb 8960 a73c
00000280: c029 033d 62ef cd3c 5107 423a 9d0f 70bd
00000290: d0ba 023d 5e35 223d 51b3 4fbd 3c33 2abd
000002a0: 7acd b53c 0f5d 7dbc cc09 0c3d b838 9fbb
000002b0: c15b 0f3d a66a 693c b2e2 9bbc c7cc 78bd
000002c0: 5b54 8cbc ab90 033d ff2f 74bd 3f8f 52bd
000002d0: fe0f 4dbd d2a7 0dbd dab0 383d 07be 58bd
000002e0: 8508 1cbd 0a8a 3abc 5142 273d 9821 483d
000002f0: 1b44 ee3c f28e 7a3c fddd 48bd b540 b23c
00000300: 6e64 843c 41e8 9d3c d5b1 7fbb 1dac 553d
00000310: 55d8 e63c 7ba7 5cbd b5f4 263c 3cde 3f3d
00000320: 50de 2bbc d539 013d 1a94 a23c e71f 7aba
00000330: 25d7 39bc d657 6abd 746f d2bc aff2 99bd
00000340: ed7e 913c 7e93 46bc e48f 40bc 8682 57bc
00000350: 4c3d 353c b9f1 4a3b a67c e83c a91a c3bc
00000360: e6c6 a3bd 4830 b2bc 257b e13c 60da b9bc
00000370: 663a 3bbd 52d2 193d 284f ba3c 4eb9 133c
00000380: 9c57 87bc 9147 863c 5c27 e53b cc88 abbb
00000390: bbe0 cfbc de45 643c a7cc a13c e132 c13b
000003a0: 3e0c 41bd 6707 123d 5fd4 59bd 3880 843c
000003b0: 3107 9a3b fde8 12bd 642b 9dbb e04b a13c
000003c0: f3aa bf3a 4e99 5f3d c3be d93c 69b8 2abd
000003d0: da07 ff3b 3b92 4b3d f584 febb 8b9c 1abd
000003e0: 0655 933c de4c 363d 2d08 dc3c 633a 01bd
000003f0: 972c 94bc 79a0 3abb 49cb ee3c 2756 d7bc
-0.058285914 -0.0043161674 -0.011030805 0.023260895 -0.032922048 -0.056146126 -0.031282753 -0.016083801
-0.02980479 -0.021094447 0.012303472 0.02487192 0.03308504 -0.05291119 0.030151803 -0.008219386
0.04941042 -0.024505742 0.042916965 -0.052699655 0.050614756 0.027779896 -0.047191814 -0.043413818
0.02275065 0.03743583 -0.04325914 -0.012977958 0.038012426 -0.05476426 0.0025671662 -0.057486612
0.028665911 -0.024569722 0.021197855 0.011105932 -0.020527726 0.04742675 0.012747396 0.015166082
-0.011919693 0.028743306 -0.053846788 -0.053628635 0.030344807 -0.016915623 -0.0142960055 0.018453179
-0.020433525 0.018783126 0.0493585 -0.045738075 -0.0015911899 0.053552758 0.006435476 0.050311893
0.043340474 0.031058548 -0.017631158 -0.0112714665 0.018950334 0.012535634 -0.029780583 -0.0062815202
0.056370135 -0.023000767 0.019706447 -0.027000114 0.046811506 0.010857789 0.0027769136 -0.042622223
-0.036396187 0.027018266 -0.039946437 0.014811039 -0.03687715 -0.012213912 -0.01497436 0.054436933
0.04614466 -0.034229852 0.051237945 -0.057227988 0.016188849 0.01885672 0.010042145 0.016110921
-0.05365382 0.043066956 -0.00935436 -0.011779121 -0.008958786 -0.022899698 0.015779385 -0.03157864
-0.03986062 0.025472304 0.056892447 -0.05353045 0.018048454 -0.012473682 -0.01552366 -0.02438023
0.018367313 -0.041275315 -0.05235897 0.008972667 -0.017692108 -0.009246816 -0.05216898 -0.03740787
-0.05370997 -0.020190721 -0.025336709 -0.039722323 0.026217133 0.0061929394 -0.025529705 -0.0074349656
0.024374194 -0.03783583 0.018579412 0.025119703 0.04129813 0.013820068 -0.053369433 0.0007013231
-0.028253907 -0.007214641 -0.025608394 -0.05040068 0.041554265 -0.01989324 -0.04215939 -0.019493045
0.049486015 -0.057326645 -0.022028634 -0.011165469 -0.052431297 -0.03624488 0.030930795 0.036893953
-0.03310468 -0.021604588 -0.02118459 -0.045077324 0.034094125 0.044118885 0.003189625 -0.058092207
-0.055033136 0.009641166 0.015207999 -0.008680555 0.0018819786 -0.02049918 -0.0056412737 0.020431774
0.032022238 0.02513856 0.0007401603 -0.05860864 0.03191644 0.039601676 -0.05070812 -0.041552767
0.022192705 -0.015464081 0.03418903 -0.0048590563 0.034999613 0.014246618 -0.019028995 -0.060742166
-0.017130068 0.032120388 -0.059616085 -0.05140614 -0.05006408 -0.034583874 0.045090534 -0.0529156
-0.038094062 -0.01138545 0.04083473 0.048860162 0.02908521 0.01529287 -0.04903983 0.02175937
0.01616117 0.019275786 -0.0039015908 0.052166093 0.028179327 -0.05387066 0.010190179 0.0468428
-0.010490015 0.031549294 0.019846011 -0.0009541497 -0.011342798 -0.057212673 -0.02568791 -0.07516991
0.017760718 -0.012120126 -0.011753056 -0.013153678 0.011061978 0.0030966832 0.02837975 -0.023816423
-0.07996921 -0.021751538 0.02752454 -0.022687137 -0.04570999 0.037554093 0.022742823 0.009016348
-0.016521268 0.016391547 0.0069932174 -0.0052348133 -0.025375715 0.013932673 0.019750906 0.005895958
-0.047130816 0.03565159 -0.05318105 0.01617442 0.0047005643 -0.035866726 -0.0047964323 0.0196895
0.001462309 0.054589562 0.02658022 -0.041679773 0.0077829184 0.049700003 -0.0077673146 -0.037746947
0.017984878 0.0445069 0.026859367 -0.031549823 -0.018087668 -0.0028476997 0.029149668 -0.026286198

linear1.bias f4 [512]
00000000: 947e 483b 1e00 44bc 891f 15bd f959 1b3d
00000010: 854e 21bd 36c3 a8bc a3b8 d03c 48bb 123d
00000020: f1c1 17bc 6b85 063c ab6f 963c 8eb1 553d
00000030: 0ca8 353d 8216 d63b 6cbe 01bc ab03 2b3d
00000040: c737 3c3d eb2c 08bb b220 2b3d acf7 2e3d
00000050: 9f32 123c c0c1 4dbc 71ef 01bb c538 683b
00000060: 92f6 90bc 23df 053d f138 99bb bfe7 973c
00000070: 2c28 57bc daa5 13bd a8da 98bd 7f82 88bd
00000080: fd79 98bb c44d 83bd 675c 94bc 94c2 3dbd
00000090: 1393 6dbd 8ef3 bbbc be51 c13c 4586 923c
000000a0: a1a0 603d aa45 3fbd cd60 8fbd 0b95 603d
000000b0: 5954 9fbc 9055 993c ff61 ee3c 1e89 e93b
000000c0: 7e74 0fbd 5145 4fbd f0a8 1fbd 88c3 b9bc
000000d0: edcf 0fbd 3830 2dbc 6bdf 56bd 42c0 193d
000000e0: ca94 33bd 15a3 30bd 8b1f da3b 2925 583b
000000f0: 63be 68bb 35db 82bc 041a 493d 1b5d c43b
00000100: 4364 b73b 064e 65bd dbd8 b63c effb eebc
00000110: 3224 b13c c33e 0b3c 8ae1 cfbc a165 083d
00000120: 72f6 023d e791 b4bc c955 393d fcd1 8d3b
00000130: 7d51 97bc acc9 20bc 00a6 1c3d 1ff7 93bd
00000140: 8d59 ea3c 1e19 65bc 196e 643a be93 4ebd
00000150: 368b 3ebd 3a41 87bd ca75 abbc 9353 dc3c
00000160: e975 2dbd 1723 5dbd 5398 34bd 626b 8e3c
00000170: 620f 8ebd 7f37 65bd 0535 90bc 2ae5 18bd
00000180: 92a9 4eb7 122d a1bc 1915 4ebc f609 e3bc
00000190: 51e5 4abd 1fc5 56bd c7a0 263d 257a f53c
000001a0: 3d98 5ebd 557c 5e3d 565a 90bd 42e2 6fbd
000001b0: d805 61bd 7709 bdbc c34c 0bbd 67e0 2cbd
000001c0: 78d2 013b f7eb 153d e45c 4a3c e146 fa3c
000001d0: 0298 9cbc 82bd 52bc b7bc 923a 3562 b73c
000001e0: e37c 61bd e177 31bd 339c 453d f179 3538
000001f0: 3b4d 913b 40d9 e33c 61d0 153d 1798 4f3c
00000200: e1bd 193d 936c 61bd b747 15bd add3 75bd
00000210: 919f 6ebd 13a4 a33b 2619 81bd ecbf 9ebd
00000220: c426 20bd bf42 3ebd 14cc b7bc ff64 34bd
00000230: 9a5b 40bd 9eda 78bd a76f 19bd f501 2cbd
00000240: 6071 6cbd e873 31bd 47f8 133d 0ed7 25bc
00000250: ef26 2ebc f1ad 813c 545a aabc 3a88 e0bc
00000260: 856b 37bd 9155 2e3c b83a 60bc 3e69 97bd
00000270: 798e 35bc 66f8 20bc c31b 07bd f0ce 8cbc
00000280: c3f4 1bbd 9764 18bd 67fb 2c3d 7d0b 873c
00000290: f6e1 303d f611 24bd b9e7 dc3b deb2 033c
000002a0: 8ddf 00bd 165f 4b3d a5a9 583d b45c d4bc
000002b0: fd14 0bbc 5413 00bd db5f 94bd 4f76 8cbd
000002c0: 1549 183c 7b98 73bd 501e 6bbd d376 683c
000002d0: bdb4 50bd 87c8 82bd 3402 5f3d 05e1 47bd
000002e0: 2d7b 87bd 42f3 1c3d f39d 89bd 1fe4 25bc
000002f0: d20f 893c 4f31 52bc e1b1 c13a 2e90 91bb
00000300: 5696 cbbc 41d4 9cbb 3cdf e7bc 5b82 b5bc
00000310: 92c6 e8bc 995b af3c 0562 11bc d222 fabc
00000320: 881f ddbc 1b03 d5bc b87a e3bc 4e5c 1d3d
00000330: ce0f 78bd 746d b9bc da63 38bd 4a7a 03bd
00000340: 3595 b43c 324d 573c 9117 e23c b8c9 da3c
00000350: b06c 0a3b cb97 633c 2cfa 1ebd 4ada 06bd
00000360: 2678 a0bc 629b 6fbd ed25 ed3c 1915 793c
00000370: e6d6 14bd cb02 32bd 1c6b 73bc c37a 63bc
00000380: 7deb 14bd e675 7bbd ecc4 4cbc 1411 a43c
00000390: c41d 103d 5b2c e1b9 8a5c 49bd baf2 c9bb
000003a0: f964 703d f208 a7bb 91e2 dfbc 1683 e53c
000003b0: 8ef6 0abd f10c b43c dad8 0c3d 9fab e03c
000003c0: 1846 6cbb 1737 d6b9 653d 30bd a67e 5dbd
000003d0: 029d cdba a8d8 71bd 6368 c7bc 9ac4 dcbb
000003e0: 907c 55bd cb2b 7bbc 4098 503d 89bf 72bb
000003f0: 3e48 96bd f2b5 39ba cdef 2dbd ab59 a53c
0.0030593025 -0.011962919 -0.036407027 0.0379276 -0.039381523 -0.020600896 0.025478667 0.035823137
-0.009262548 0.00821052 0.018363794 0.052171282 0.044349715 0.006533445 -0.007918935 0.041751545
0.04595163 -0.0020778726 0.041779228 0.042716667 0.008923202 -0.012558401 -0.0019826556 0.0035434228
-0.017695699 0.032683503 -0.0046759774 0.018543122 -0.013132136 -0.03604684 -0.0746358 -0.06665515
-0.004653214 -0.06411317 -0.018110467 -0.046328142 -0.05800159 -0.022943284 0.023598548 0.01788629
0.054840688 -0.046697296 -0.07000885 0.05482964 -0.0194494 0.018717557 0.029099463 0.0071269413
-0.035023205 -0.050603215 -0.03897947 -0.022676244 -0.035110403 -0.010570578 -0.05245916 0.037536867
-0.04384307 -0.043124277 0.0066565922 0.0032981134 -0.003551387 -0.015973667 0.049097076 0.0059925443
0.005596669 -0.055982612 0.022320202 -0.029172866 0.021623705 0.00849885 -0.0253761 0.033300046
0.03197331 -0.022042228 0.045247827 0.0043280106 -0.018471474 -0.009813707 0.038244247 -0.07224869
0.028607154 -0.013983039 0.00087139156 -0.050433867 -0.04651948 -0.06604238 -0.02093019 0.02689532
-0.042348776 -0.053988542 -0.04409058 0.017385188 -0.06936528 -0.05596113 -0.017603407 -0.037327923
-1.2318038e-05 -0.019674812 -0.012578272 -0.02771471 -0.0495351 -0.052434083 0.040680673 0.02996547
-0.054344404 0.05431779 -0.0704848 -0.058565386 -0.054937214 -0.023075802 -0.034008753 -0.042206194
0.0019809287 0.036601987 0.012351248 0.030551376 -0.019115452 -0.012862565 0.0011195157 0.022385696
-0.055050742 -0.043327216 0.048244666 4.326733e-05 0.0044342554 0.027813554 0.03657568 0.012670538
0.0375346 -0.055035185 -0.036445346 -0.060016323 -0.058257643 0.0049939244 -0.06303625 -0.0775145
-0.03909947 -0.046450373 -0.02243618 -0.04404163 -0.046962358 -0.060755365 -0.037459996 -0.041994054
-0.05772531 -0.043323427 0.036125448 -0.010122074 -0.0106294 0.015830012 -0.020795025 -0.027408708
-0.044780273 0.010640518 -0.013685875 -0.0739312 -0.011081331 -0.009824848 -0.03298546 -0.01718852
-0.03807522 -0.037205305 0.042231943 0.01648497 0.043184243 -0.04005619 0.0067414907 0.008038251
-0.031463195 0.049651228 0.05289616 -0.02592311 -0.008488891 -0.031268433 -0.072448455 -0.06858503
0.009294768 -0.05947159 -0.057401955 0.014188486 -0.050953615 -0.06385904 0.05444546 -0.04879858
-0.06615291 0.038317926 -0.067195795 -0.010125189 0.016731177 -0.012829139 0.0014777743 -0.0044422364
-0.02485196 -0.004786045 -0.028304689 -0.022156885 -0.028414998 0.021405982 -0.008873467 -0.030534182
-0.026992574 -0.026002457 -0.027768478 0.038418107 -0.060561948 -0.0226352 -0.0450171 -0.032099046
0.022043804 0.013140963 0.027599128 0.026707515 0.0021121912 0.013891171 -0.0388128 -0.03292302
-0.019588541 -0.058497794 0.028948748 0.015202784 -0.036337756 -0.043459695 -0.01485708 -0.013884249
-0.03635739 -0.061391734 -0.012498122 0.020027675 0.035184637 -0.00042948392 -0.049160518 -0.0061629685
0.058690045 -0.005097502 -0.027329715 0.028016608 -0.03392654 0.021978827 0.034386493 0.027425585
-0.0036052521 -0.00040858306 -0.0430273 -0.05407586 -0.0015687051 -0.05904451 -0.024341768 -0.006737304
-0.052120745 -0.015330265 0.050926447 -0.0037040433 -0.07337998 -0.0007084302 -0.04246502 0.020184359

linear2.weight f4 [4, 512]
00000000: bf8a 07bc 4b64 c73c 14db 8dbc cb6b 01bd
00000010: e1f5 6abc 56e3 13bd aac5 8abb 7eb9 f23c
00000020: 074c a7bb 3e56 02bd 8d97 e8bc 8408 94bc
00000030: a914 e338 3153 163d 59f2 ab3c 2664 0fbd
00000040: feb3 b73b b55d f5b9 f2e4 bb3c 9f59 9c3c
00000050: 6e07 bdbc ce6a 24bb 8357 4dbc 4252 a9bc
00000060: bbbf 3a3c 6bb6 5d3c 4e90 c4bb de38 38bc
00000070: 49e6 233d 9b99 203d 5d3f 943a aba3 9e38
00000080: 7341 283c 85de c33c 0b65 dabb 870b 0cbd
00000090: f6ee 893c 7e59 b53c 0647 a0bb 6e6a e4bb
000000a0: 5cc0 8abb 73d4 213b 9ebd c5bc 0e21 01bd
000000b0: f79e 1c3c 682e 2fbb 74e7 033d 212a bbbb
000000c0: 2ec9 c73c 10f8 be3c fd62 b5bc bd71 b73c
000000d0: 176e a8bc e0d2 f8bb 2675 a2bc cb28 113d
000000e0: efcc 1fbd d064 f43c 9806 13bc eb01 893a
000000f0: 2a3e a7bc ab86 9fbc d7b9 a3bc cafa 1c3d
00000100: e6e7 8ebc 23bd f6bc 12f4 d13b edd4 e8bc
00000110: 40fc 223a 9886 393c 9937 26bd 70f7 ca3c
00000120: dff4 073d c3a8 343d e798 11bc 3edf bc3c
00000130: 471d 44bc 4924 743b d626 2a3b 4df4 653d
00000140: 162a ad3c c711 193c 3286 f6bc 97a1 05bd
00000150: 3738 203c 500a aebc f1ff 8f3c e3c8 023d
00000160: 249b 07bd f40d 8cbc 7d58 2a3c beb8 60bc
00000170: ccaf 24bb f96a e1bc 40ae c13b 59d3 cabc
00000180: 41b2 243c 1866 163b 1c40 273b 7b8b f5bc
00000190: 5698 5c3b 940c a3bc 42c0 083c c6e0 15bd
000001a0: 929a 6b3c 4417 dd3c 8dfe ca3b 1b79 05bd
000001b0: 4c7f ab3b d411 e63c 88bc cabb fc2d 80bc
000001c0: 4390 06bb 7ecd 93bc a99f 393c a6d1 15bd
000001d0: 265b 143b 1ae7 e93c efac 023d 7a4b b7bb
000001e0: e436 06bd 2f97 28bd baa0 47bc f49e 503c
000001f0: 1078 2fbd 098f 683d c9f8 edb9 34e8 fc3c
00000200: f868 e83c ab1b 6abc 6c0f 753c 56d5 ecbb
00000210: 0c48 4d39 17a6 553c 6814 d93c 706d 28bd
00000220: fb78 883c a426 0c3c bc3c 153c 8e16 04bb
00000230: 053d c3bc 8129 52bb 9af4 913c 8f1e a23c
00000240: 174f c1bb cfdf 2ebc 08e6 2c3a d046 91bb
00000250: 247f e43b 82d7 8a3c 5e1e bf3c eeaf 473c
00000260: 00d2 fabc e5be 4dbc cd8e 0fbc 81d8 4bbc
00000270: 5828 8cbc e97b 02bc 4c6f 24bd 29c5 f43c
00000280: b536 eb3c e02c 093c a16e 9cbc e021 11bd
00000290: 8704 1b3d a419 003d f736 4c3b 68c1 22bc
000002a0: 72c4 78bc db2b b2bc 4e14 463b ce57 8f3c
000002b0: 0103 f23b 87aa 953c cb78 13bc 0664 ac3b
000002c0: 76d5 2e3d ca44 04bb 7a87 0abd 32e7 bd3c
000002d0: bab8 5d3c 421d 7cbc e9f8 b5bc 2b17 6bbc
000002e0: ef94 19bc 53a0 9ebc c3ae 8a3a ffcc 97bc
000002f0: 00b5 e03c 4c1b 81bc 43b8 f53a 9021 293a
00000300: 980f 173d ac9d 2fbc fa02 0ab9 911b 343d
00000310: 8150 88bc a9f6 1ebc d727 9c3c 7e0a 4b3b
00000320: faad 8e3c 85a9 2b3d e384 1dba 2f85 2abc
00000330: c720 27bd b028 debc 94ce 58ba 4c7a c83b
00000340: 0b95 eabc 553d 4b3d 53d3 b33c b86b 86bc
00000350: b032 05bd 1c99 4f3d cc3c 033d 21f2 123c
00000360: 089c 0dbd 0487 843c 6c2f a8bc 7f6a 7e3c
00000370: 908c 203c 8e33 27bd 7cff 21bd 1a5b a3bc
00000380: 5a27 c4bc 94c6 663c e3d5 9b3c 3ae6 a9bb
00000390: e140 57bc 8aa0 aebc 86ba e7bc 6eda e7bb
000003a0: 3347 2cbc b813 54bc fbc9 80ba 8589 a7bb
000003b0: a36b a1bc b332 33bd ab3b 1e3d 7606 993c
000003c0: 85be 4abc dec5 123c 51ce ab3c 9642 b33c
000003d0: 4e5d dd3c b087 363b 8be6 3b3b 70d5 02bd
000003e0: 9c5e 54b9 61ad 4d3c af5c 153d 37a0 423c
000003f0: 5bee 4dbc e114 9cbc 0408 943b 5c31 21bd
-0.008272826 0.024339816 -0.017316379 -0.03159694 -0.014340849 -0.036105476 -0.004234989 0.029629465
-0.0051054987 -0.03182053 -0.028392578 -0.018070467 0.00010828052 0.03670043 0.020989584 -0.03500762
0.0056061735 -0.0004679986 0.022936318 0.019085703 -0.023074832 -0.0025088075 -0.012533071 -0.020669106
0.011398251 0.013532261 -0.005998648 -0.011244027 0.04001454 0.03920899 0.0011310388 7.5645126e-05
0.010269511 0.023909817 -0.0066648773 -0.03419068 0.016837578 0.0221374 -0.004891279 -0.006970695
-0.004234357 0.002469328 -0.024138268 -0.031525664 0.009559385 -0.002673054 0.032203153 -0.0057118093
0.024387922 0.023311645 -0.022141928 0.022393102 -0.020560307 -0.0075934976 -0.019831251 0.035439294
-0.0390138 0.029833227 -0.00897374 0.0010452842 -0.020415384 -0.019473394 -0.019986076 0.03832511
-0.017444562 -0.030119484 0.0064072693 -0.028421843 0.0006217398 0.011323594 -0.040580366 0.02477619
0.03319251 0.044106256 -0.008886552 0.023055669 -0.011969871 0.0037253073 0.002596309 0.056141187
0.021138232 0.009342617 -0.030093286 -0.032624807 0.009779028 -0.021245152 0.017578097 0.03192986
-0.033106938 -0.017096497 0.010397074 -0.013715921 -0.0025129197 -0.027516829 0.005910665 -0.024758982
0.010052265 0.0022949036 0.002552039 -0.029973736 0.0033660135 -0.019903459 0.008346619 -0.036591314
0.014380114 0.026988633 0.0061948956 -0.0325862 0.005233681 0.028084673 -0.0061870255 -0.015646927
-0.0020532764 -0.018042322 0.01132957 -0.03657689 0.0022637337 0.02855258 0.031903204 -0.0055937143
-0.03276719 -0.041159805 -0.012184316 0.01273321 -0.04283911 0.056777034 -0.00045389522 0.030872442
0.028370366 -0.014288823 0.01495729 -0.00722758 0.00019577163 0.013040087 0.026498988 -0.041119993
0.01665925 0.0085541345 0.0091087185 -0.0020155045 -0.023832807 -0.0032068195 0.01781683 0.019789962
-0.005899321 -0.010673477 0.00065955566 -0.0044334903 0.006973164 0.016948465 0.02332991 0.012187941
-0.030617714 -0.01255772 -0.008762074 -0.012441755 -0.017109081 -0.007964113 -0.040145203 0.02987917
0.02871261 0.008372515 -0.01909572 -0.035432696 0.037846114 0.031274453 0.0031160691 -0.009933807
-0.015183555 -0.021749428 0.0030224505 0.017497923 0.007385612 0.01826979 -0.009000967 0.005260947
0.04268404 -0.0020182603 -0.033820607 0.023181532 0.013532812 -0.015387835 -0.022213416 -0.014348785
-0.009373887 -0.019363558 0.0010580648 -0.018530367 0.027430058 -0.015760086 0.0018746931 0.00064518396
0.036880106 -0.010718744 -0.00013161814 0.043971602 -0.01663995 -0.009702363 0.019061966 0.0030981596
0.017416943 0.041909713 -0.00060088764 -0.01040773 -0.040802743 -0.02711901 -0.00082705286 0.0061180945
-0.028635522 0.049619038 0.021951353 -0.016408786 -0.032519042 0.050683126 0.032040402 0.008968861
-0.03457263 0.016177662 -0.020530425 0.01552832 0.009799138 -0.04082065 -0.03955029 -0.019940902
-0.023944546 0.014085431 0.019022888 -0.005184916 -0.013138027 -0.021316785 -0.028287183 -0.0070755994
-0.010515022 -0.012944154 -0.000982582 -0.005112829 -0.019704645 -0.043749522 0.038631123 0.018679839
-0.012374525 0.008958308 0.020972403 0.021882337 0.02702203 0.0027851872 0.002867135 -0.03194183
-0.0002025314 0.012553544 0.036465343 0.0118790185 -0.012569035 -0.019052925 0.004517557 -0.039353713

linear2.bias f4 [4]
00000000: c722 e4bc 0b5d 093b 3131 5abd 3270 ea3c
-0.027848614 0.002096 -0.05326957 0.028617952
