PacManBetter/model/model.pth (torch, 105875 bytes, 4 tensors)

linear1.weight f4 [512, 46]
0	0xbdf5a3ab	-0.11994108
1	0xbd12315d	-0.035691608
2	0xbde4f289	-0.111790724
3	0xbe0f4975	-0.13992865
4	0xbd1e02cf	-0.038576897
5	0x3db26806	0.08711247
6	0x3da29737	0.07938998
7	0xbde78925	-0.11305455
8	0xbd273666	-0.040823363
9	0x3dbae51e	0.09125732
10	0x3d8f4520	0.069956064
11	0xbc2d5347	-0.010578937
12	0x3cef4510	0.029207736
13	0xbd890979	-0.0669126
14	0x3dc40c02	0.09572603
15	0xbd65ad2b	-0.05607335
16	0x3d9b848b	0.0759364
17	0xbc84fb64	-0.016233154
18	0xbdfbd7cf	-0.122970216
19	0xbe064889	-0.13113607
20	0xbdb2e718	-0.08735484
21	0xb9717dd2	-0.00023030423
22	0x3d7ce3fa	0.061740853
23	0x3c77f385	0.015133743
24	0xbab1e127	-0.0013571129
25	0xbcda81f7	-0.0266733
26	0xbccf8602	-0.025332455
27	0xbd8cdc3f	-0.06877946
28	0x3d1e63fe	0.03866958
29	0x3e0183d8	0.1264795
30	0x3e017008	0.12640393
31	0x3d7338ff	0.059380528
32	0xbdb3aecb	-0.087735735
33	0xbdea52b4	-0.114415556
34	0xbd86cbea	-0.06581862
35	0x3e086214	0.13318664
36	0x3cd99a69	0.026562886
37	0xbd8aa12a	-0.06769021
38	0xbbd0f545	-0.0063768947
39	0x3db61843	0.08891346
40	0x3d628690	0.05530411
41	0x3d8b4b9c	0.06801531
42	0xbc65a96b	-0.014017443
43	0x3d6b8ba6	0.057506226
44	0x3df767c8	0.120803416
45	0x3dfd8a08	0.12379843
46	0x3c8d878a	0.017276544
47	0x3d69e785	0.05710556
48	0xbccab976	-0.024746638
49	0xbdf1133a	-0.11771245
50	0xbe06558f	-0.13118576
51	0xbd9b7b88	-0.07591921
52	0xbd73a268	-0.059481055
53	0xbdca03b3	-0.09863987
54	0xbdf68165	-0.12036399
55	0xbd69ccaa	-0.05707995
56	0xbe37775f	-0.1791663
57	0xbd380353	-0.044925045
58	0x3c639914	0.013891477
59	0x3df580f5	0.11987487
60	0xbde83746	-0.113386676
61	0x3d8b505e	0.06802438
62	0xbe0483a8	-0.12940848
63	0x3dbbbac0	0.09166479
64	0x3d899bde	0.067191824
65	0xbcec57ec	-0.028850518
66	0x3dab2cae	0.08358131
67	0xbe05c70b	-0.1306421
68	0xbe105d26	-0.14098033
69	0xbe24ae16	-0.16082034
70	0x3e10d7f0	0.14144874
71	0x3e0b14f0	0.13582206
72	0x3c26f402	0.010190012
73	0x3d908ada	0.07057734
74	0xbbb961f7	-0.0056574303
75	0xbcd65215	-0.026162187
76	0xbe15f53a	-0.14644328
77	0x3dd06de1	0.10177208
78	0x3d4b93d0	0.04970151
79	0x3daa8638	0.083263814
80	0x3d0d2229	0.034456406
81	0xbce2c449	-0.027681487
82	0x3dd07c03	0.10179903
83	0xbcbdcdbb	-0.023169389
84	0x3d49868e	0.049200587
85	0x3c864255	0.016389051
86	0x3d7faac5	0.062418718
87	0x3cd269b5	0.02568517
88	0xbc9c8360	-0.019105613
89	0x3dc88f0c	0.09792909
90	0xbe31dbd8	-0.1736902
91	0x3dbe4821	0.09291101
92	0xbacdca09	-0.001570047
93	0x3d8d235d	0.06891511
94	0xbc89f478	-0.016840205
95	0xbc2e32ea	-0.010632256
96	0xbd785c1f	-0.06063473
97	0xbc67dc96	-0.014151713
98	0x3dcdd9d6	0.100513145
99	0xbd164296	-0.036684595
100	0x3dadd6a1	0.08488203
101	0x3d507f3a	0.050902583
102	0xbdacf420	-0.08445001
103	0xbe0c1617	-0.13680302
104	0xbdf363e9	-0.11884291
105	0xbe11a807	-0.14224254
106	0x3d9f2933	0.0777153
107	0xbe14c07c	-0.14526552
108	0xbdd0c2fd	-0.10193441
109	0x3de969ec	0.11397156
110	0xbdd1389a	-0.10215874
111	0xbd94d3f7	-0.072669916
112	0xbdefebd2	-0.11714901
113	0xbe0b5123	-0.1360517
114	0xbd914592	-0.070933476
115	0xbe485d93	-0.19566946
116	0xbcf892f4	-0.03034351
117	0xbe019a44	-0.12656504
118	0x3d9996c3	0.07499459
119	0x3cd4477c	0.025912993
120	0x3d250abf	0.04029345
121	0x3c314f8c	0.010822188
122	0x3d5b0f69	0.053481493
123	0xbde3bb8e	-0.111197576
124	0xbd02b21f	-0.03190815
125	0x3e168ddf	0.14702557
126	0xbd8930ad	-0.06698737
127	0x3d3ab31e	0.045580976
128	0xbe03550a	-0.12825409
129	0xbdf73f65	-0.120726384
130	0xbd95bfe0	-0.07311988
131	0x3d8d1564	0.068888456
132	0xbcfe8a02	-0.031071667
133	0x3df3d931	0.1190666
134	0xbe0e1305	-0.13874443
135	0xbcfa9ea1	-0.030593218
136	0xbe0326bd	-0.12807746
137	0x3da189a0	0.07887578
138	0x3cfe03d8	0.031007692
139	0x3dcd8cf6	0.10036652
140	0x3ddc788d	0.10765181
141	0xbd3d1a3e	-0.046167605
142	0xbd1b1175	-0.037858445
143	0x3db65713	0.08903327
144	0xbdbec77f	-0.093153946
145	0x3bb5dd52	0.005550065
146	0xbc5eb8b0	-0.013593838
147	0xbe194915	-0.14969285
148	0xbd790286	-0.060793422
149	0xbccffbdf	-0.025388656
150	0x3dcfd79e	0.101485476
151	0xbdcba725	-0.0994399
152	0xbd533a44	-0.05156924
153	0x3b0d00a6	0.002151528
154	0x3c854c85	0.016271839
155	0x3e153835	0.14572223
156	0xbd867f05	-0.06567196
157	0xbe2ec1e4	-0.17066151
158	0x3d6e7828	0.05822006
159	0x3d59d5ae	0.053182296
160	0xbd0cad35	-0.03434487
161	0xbe0db988	-0.13840306
162	0xbdf6dd43	-0.12053921
163	0xbdfbd769	-0.122969456
164	0xbddd1cf2	-0.107965365
165	0x3cdf674c	0.027270935
166	0xbc21475c	-0.009843674
167	0xbce58f02	-0.028022293
168	0x3d1f103e	0.03883385
169	0x3cd4c233	0.025971508
170	0x3de57e0d	0.11205683
171	0x3c9d63d5	0.019212643
172	0xbd87ef59	-0.06637449
173	0x3db2534f	0.08707296
174	0x3df7b847	0.12095695
175	0xbd12af28	-0.035811573
176	0x3dbce03a	0.09222455
177	0x3ded5ef0	0.115903735
178	0xbe0fecb6	-0.14055142
179	0xbd0a636d	-0.033786226
180	0x3cc9ee09	0.024649637
181	0xbdcd03df	-0.10010504
182	0xbe0cb0df	-0.13739346
183	0xbdfcb644	-0.12339452
184	0xbe03c453	-0.1286786
185	0xbd2c1912	-0.042016096
186	0xbd8c26b1	-0.06843317
187	0xbd7b5abf	-0.06136584
188	0x3b12ca7b	0.002239852
189	0x3de9a022	0.11407496
190	0xbd176bed	-0.03696816
191	0xbd835c3d	-0.064140774
192	0xbdb918b8	-0.09037918
193	0x3da91d82	0.08257581
194	0xbdffabc2	-0.12483932
195	0xbde4745e	-0.11155008
196	0x3dd8725d	0.10568688
197	0x3d2b7214	0.04185684
198	0xbe1cc9ef	-0.15311407
199	0xbe0901d0	-0.13379598
200	0xbdb2b40d	-0.08725748
201	0xbb83edcb	-0.00402615
202	0x3d9651b4	0.073398024
203	0x3d804e6a	0.06264956
204	0x3db79d89	0.08965594
205	0x3de76bc1	0.11299849
206	0xbde9e20b	-0.114200674
207	0x3cc8546b	0.024454316
208	0xbddbddcd	-0.107356645
209	0xbd87726a	-0.066136196
210	0x3ddf8d2e	0.109156
211	0xbda00c0e	-0.07814799
212	0x3c44615b	0.011986102
213	0x3dcb636c	0.099310726
214	0xbba427c3	-0.005009623
215	0xbdb7f01d	-0.08981345
216	0x3c94a7c6	0.018146407
217	0x3d91ba05	0.071155585
218	0xbc3a3b35	-0.011366655
219	0x3d3d3452	0.046192475
220	0xbdda5f03	-0.10662653
221	0x3e01ab2b	0.12662952
222	0xbce1d06a	-0.0275652
223	0x3dc830fb	0.09774967
224	0x3ca7cbc2	0.020482901
225	0x3d2f4d97	0.042798605
226	0x3d6ff9fb	0.05858801
227	0x3ccd2043	0.025039798
228	0xbd359606	-0.044332527
229	0xbddf91c9	-0.10916478
230	0xbe34a53f	-0.17641161
231	0xbc119873	-0.008886444
232	0x3da0df49	0.07855088
233	0xbdd796f8	-0.10526842
234	0x3ce590f5	0.028023222
235	0xbd52b730	-0.051444232
236	0x3db24952	0.08705391
237	0xbda427fb	-0.08015438
238	0xbe01ee5b	-0.12688582
239	0xbe0efe74	-0.13964254
240	0xbe4554ab	-0.1927058
241	0x3cd1447b	0.02554535
242	0xbd077d21	-0.033078317
243	0xbddebb55	-0.108755745
244	0x3dca781a	0.09886189
245	0xbe2b5ab6	-0.16733822
246	0x3df5ba52	0.119984284
247	0x3dc72810	0.09724438
248	0x3da67b87	0.0812903
249	0xbdcc67a4	-0.099807054
250	0x3e152960	0.14566565
251	0x3dba57e7	0.09098797
252	0xbe3cb8ba	-0.18429843
253	0xbdf4eefa	-0.11959644
254	0xbdb656c5	-0.08903269
255	0x3e07d2af	0.13263963

linear1.bias f4 [512]
0	0x3def4413	0.11682906
1	0x3cbc6186	0.022995722
2	0xbce66d7d	-0.02812838
3	0xbe2adc5d	-0.16685624
4	0xbdb0cba4	-0.08632591
5	0xbd108103	-0.035279285
6	0x3dae8355	0.08521143
7	0x3d7cdcb2	0.06173391
8	0x3cab8003	0.020935064
9	0xbdffaf45	-0.12484602
10	0xbd77d4e5	-0.060505766
11	0xbdd77df6	-0.10522072
12	0x3d9741b6	0.0738558
13	0x3d55c6f8	0.052191705
14	0xbdcb61a1	-0.099307306
15	0x3da7404d	0.08166561
16	0x3d5a34ea	0.05327312
17	0xbe3989a2	-0.18118909
18	0xbc97a084	-0.018509157
19	0xbd5faf82	-0.054610737
20	0xbe17e375	-0.14832862
21	0xbe0496d0	-0.12948155
22	0xbe1166fb	-0.1419944
23	0x3d7b64e7	0.061375525
24	0xbd15b187	-0.036546256
25	0x3d58219f	0.05276644
26	0xbe2e702c	-0.17034978
27	0x3d9b8d82	0.0759535
28	0x3d492a60	0.049112678
29	0xbe3571c2	-0.17719176
30	0x3ca5fd7d	0.020262474
31	0x3db4a036	0.0881962
32	0x3d36ea8e	0.044657283
33	0xbe132770	-0.14370513
34	0xbdf25d92	-0.11834253
35	0xbd5673b6	-0.052356444
36	0x3bfc5e8e	0.0077017015
37	0xbe0aa6ac	-0.13540143
38	0x3bfa1489	0.0076318425
39	0xbdfcda29	-0.12346298
40	0x3827dcd8	4.002158e-05
41	0x3d8d3a12	0.06895842
42	0xbe3ce578	-0.1844691
43	0xbe1525ae	-0.14565155
44	0x3dc97b53	0.09837975
45	0x3dccc514	0.09998527
46	0xbcccc5d7	-0.024996681
47	0x3cf5f970	0.030026168
48	0xbe0b6ae5	-0.13614996
49	0xbe14f050	-0.14544797
50	0xbcfc2c8a	-0.030782957
51	0xbd7e3a47	-0.062067296
52	0x3ca192d4	0.019723333
53	0x3c807450	0.015680462
54	0x3d1a4163	0.037660014
55	0xbd96820e	-0.07349025
56	0xbdf983fa	-0.12183376
57	0x3c8af0f3	0.016960597
58	0xbe37705c	-0.17913955
59	0xbdc3b3aa	-0.095557526
60	0x3dd6ccac	0.10488257
61	0xbdd4b8f0	-0.103868365
62	0x3d59d882	0.053184994
63	0xbd8a2a57	-0.06746357
64	0x3dee503d	0.11636398
65	0xbd95129a	-0.072789386
66	0xbde2d35d	-0.110754706
67	0x3cb54458	0.022127315
68	0x3cc9bae7	0.024625255
69	0xbcfc9c44	-0.030836232
70	0xbda9088a	-0.08253582
71	0x3c545bb3	0.012961316
72	0x3d89c1b6	0.067264006
73	0xbdfc0384	-0.12305358
74	0xbde00589	-0.10938556
75	0xbdcb8b53	-0.09938683
76	0xbc9db580	-0.019251585
77	0x3dced071	0.10098351
78	0xbd43b9df	-0.047784682
79	0xbd57d8c4	-0.05269696
80	0xbde2e8b1	-0.110795386
81	0xbe3e8395	-0.18604882
82	0xbe293cd3	-0.16527109
83	0xbe096c41	-0.13420202
84	0xbe20e47b	-0.15712158
85	0xbdbf96a1	-0.09354902
86	0xbd7b2185	-0.061311264
87	0xbd52ce81	-0.05146647
88	0x3e0d70db	0.13812582
89	0x3dde1150	0.10843146
90	0xbda8c14e	-0.08239995
91	0x3dfe40b4	0.12414685
92	0xbddf1226	-0.108921334
93	0x3cd81d10	0.026381046
94	0xbd33897c	-0.043832287
95	0x3dbdf4f0	0.09275234
96	0xbd37fdf4	-0.044919923
97	0xbe2fb214	-0.17157775
98	0xbd5bf367	-0.053698923
99	0xbcffac7e	-0.03121018
100	0x3d0a9a80	0.03383875
101	0xbd1cf2bd	-0.03831743
102	0xbd15ad9e	-0.036542527
103	0x3da97a22	0.08275248
104	0xbe3ec4ac	-0.18629712
105	0xbe3829d0	-0.179847
106	0xbdda89ea	-0.10670836
107	0xbd330307	-0.04370406
108	0xbe1edb86	-0.15513429
109	0x3d109c55	0.03530534
110	0xbccf28d5	-0.025288025
111	0x3dd759d4	0.1051518
112	0x3cca4d22	0.024694983
113	0x3db7d976	0.08977024
114	0x3ca9e06a	0.020736892
115	0x3d2f3994	0.04277952
116	0xbdd6ae1a	-0.10482426
117	0xbd1d81ec	-0.03845398
118	0xbe01fdbe	-0.12694451
119	0xbd5ee916	-0.054421507
120	0xbc3a8e93	-0.011386531
121	0xbe210aac	-0.15726727
122	0xbd992713	-0.07478156
123	0xbdfdd954	-0.12394968
124	0x3c95c720	0.018283427
125	0xbabe38d0	-0.0014512781
126	0xbde866cb	-0.11347731
127	0xbe195f94	-0.14977866
128	0xbd6c580e	-0.057701163
129	0xbdded167	-0.10879784
130	0xbe2818b7	-0.16415678
131	0xbaf02dd2	-0.0018324202
132	0xbe2fe4a6	-0.17177066
133	0xbe50331c	-0.20331997
134	0xbe1afddd	-0.15135904
135	0xbc684df9	-0.014178746
136	0xbca72828	-0.02040489
137	0xbd9280e2	-0.07153489
138	0x3db0aeb8	0.08627075
139	0xbde363a6	-0.11102991
140	0xbdf45f3a	-0.119322255
141	0xbd97b57e	-0.07407664
142	0x3d16ec44	0.036846414
143	0xbbbbf3a0	-0.0057358295
144	0xbe2ba764	-0.16763073
145	0x3df3f124	0.11911228
146	0x3d1456dc	0.036215648
147	0xbd004ac4	-0.031321302
148	0xbc842552	-0.016131077
149	0x3dcfe47f	0.10151004
150	0xbd4cb2bd	-0.049975146
151	0xbd5a3010	-0.053268492
152	0x3d6209c0	0.05518508
153	0x3da26178	0.07928747
154	0xbc21e6c1	-0.009881676
155	0xbde3672b	-0.11103662
156	0x3d3b98c2	0.045799978
157	0x3d454b25	0.048167367
158	0x3d669c42	0.056301363
159	0xbc42613c	-0.011864003
160	0xbbe705ed	-0.007050267
161	0xbcd337de	-0.025783475
162	0x3e1235a7	0.14278279
163	0xbda987d6	-0.08277862
164	0x3d88e994	0.066851765
165	0x3d6701b7	0.05639812
166	0x3cb629f0	0.022236794
167	0x3e12d164	0.14337689
168	0xbd5e8dd9	-0.054334495
169	0x3d05bee9	0.03265277
170	0xbd8bde23	-0.068294786
171	0x3d7b0f6c	0.061294004
172	0xbdfd0674	-0.123547465
173	0xbd2bd6b2	-0.041952796
174	0xbe126f2d	-0.14300223
175	0x3d480722	0.048834927
176	0xbe207b83	-0.15672116
177	0x3d0c03c5	0.034183282
178	0x3daada5c	0.0834243
179	0x3d2fdb70	0.04293388
180	0xbe16553e	-0.14680955
181	0xbdfff883	-0.12498572
182	0x3d0c8967	0.034310725
183	0x3d829290	0.06375611
184	0x3d85e654	0.06538072
185	0x3d6064de	0.054783694
186	0xbdecacd3	-0.11556401
187	0xbdc17c91	-0.09447587
188	0xbd32afde	-0.04362475
189	0x3c237ce0	0.009978503
190	0xbcef2588	-0.029192701
191	0x3d6dc406	0.05804827
192	0x3ae8e48a	0.0017768305
193	0x3d87c24e	0.066288576
194	0x3d4f8440	0.050663233
195	0x3e0aa503	0.1353951
196	0xbdd9c03f	-0.10632371
197	0xbe589bca	-0.21153179
198	0xbe187a4a	-0.148904
199	0xbd5cb792	-0.053886004
200	0xbdb018b2	-0.0859846
201	0xbda3f653	-0.08005967
202	0xbdea8a77	-0.11452191
203	0x3d8ac293	0.06775393
204	0xbd9812f1	-0.07425488
205	0xbdfb5f54	-0.12274042
206	0x3cec6d18	0.028860614
207	0xbca2edc3	-0.019888764
208	0xbd1b409a	-0.037903406
209	0xbe481ef3	-0.19543056
210	0x3cfe41c0	0.031037211
211	0x3cc7474e	0.024325993
212	0x3ba67e84	0.005081
213	0x3d67af46	0.05656364
214	0x3d0ea151	0.034821812
215	0x3d02aff6	0.03190609
216	0xbe110017	-0.1416019
217	0xbe0671da	-0.13129368
218	0xbdb0c75b	-0.08631774
219	0xbe74f551	-0.23921706
220	0xbd3593ce	-0.04433041
221	0xbd4d7ded	-0.05016892
222	0xbdbc182d	-0.09184299
223	0xbb4ca2f9	-0.003122507
224	0x3d3b97e4	0.04579915
225	0x3d8ec9e9	0.06972105
226	0xbddb10fa	-0.106965974
227	0xbe479320	-0.19489717
228	0x3c8e141f	0.017343579
229	0x3d9ef31d	0.07761214
230	0xbd954f65	-0.07290534
231	0xbdb778be	-0.089585766
232	0xbde99313	-0.11405005
233	0xbe5faa89	-0.21842398
234	0xbccc1552	-0.02491251
235	0xbde4367f	-0.11143207
236	0x3bbc2e2f	0.00574281
237	0xbcffa43f	-0.031206248
238	0x3d079118	0.033097357
239	0x3d8245ff	0.06361007
240	0xbdd03c05	-0.10167698
241	0xbd14a261	-0.03628767
242	0xbc5de341	-0.013542951
243	0xbe4d6ed6	-0.20061812
244	0xbd907225	-0.07053021
245	0xbd61b2e2	-0.055102237
246	0x3c838764	0.01605577
247	0x3d2ed589	0.04268411
248	0xbaf031ac	-0.001832535
249	0x3db79fb3	0.08966007
250	0xbe0a31d0	-0.13495564
251	0x3c22cfc7	0.009937233
252	0x3dd781a5	0.105227746
253	0xbe0ddd98	-0.13854063
254	0x3dc777b8	0.097396314
255	0xbdfa92fc	-0.12235066

linear2.weight f4 [4, 512]
0	0x3c221245	0.009892051
1	0xbcaed5bc	-0.02134215
2	0xbcb19de3	-0.021681732
3	0xbcc597d5	-0.02412025
4	0x3cc70042	0.024292115
5	0xbc3d3ff9	-0.011550897
6	0x3d230b89	0.039805923
7	0x3ca16ef4	0.019706227
8	0xbd1067a6	-0.035255097
9	0xbd053c46	-0.032528184
10	0xbcdcd55b	-0.026957205
11	0xbc87ec6c	-0.016592227
12	0xbc761b26	-0.015021121
13	0x3cfdbc9b	0.030973723
14	0xbd744815	-0.059639055
15	0xbcc34679	-0.023837315
16	0xbb6e5a47	-0.0036369727
17	0xbcb1af6a	-0.02169009
18	0x3c28d80b	0.010305415
19	0xbb6b5a1e	-0.0035911868
20	0xbd26a299	-0.04068241
21	0xbbc6c75f	-0.0060662474
22	0x3c48b686	0.012250548
23	0x3c9f489e	0.019443806
24	0xbc95d3b7	-0.01828943
25	0x3d2fbc1b	0.042904
26	0xb9414a8d	-0.00018433687
27	0xbc885ae1	-0.016644897
28	0xbb984e1c	-0.0046479832
29	0x3d320122	0.04345811
30	0xbbcd1988	-0.006259147
31	0x3cb5b78d	0.02218225
32	0xbcdd3245	-0.02700151
33	0xbd1f8651	-0.038946453
34	0x3d571f6f	0.05252021
35	0xbc2de7da	-0.01061436
36	0x3d35761d	0.044302095
37	0xbe2553c6	-0.16145238
38	0xbc45af80	-0.012065768
39	0xbc2a8603	-0.010407927
40	0x3cc19578	0.023630843
41	0xbc4d5f71	-0.012534962
42	0x3c09861f	0.008393793
43	0x3c898ccd	0.016790772
44	0x3c47b3dd	0.012188879
45	0xbcb7d5e1	-0.022440853
46	0x3c4f669a	0.012658739
47	0xbce536d9	-0.027980255
48	0x3d234e7a	0.039869763
49	0xbc70b0b6	-0.014690569
50	0xbd2458cf	-0.040123757
51	0x3c98531e	0.01859432
52	0x3c82e046	0.015976083
53	0x3d05c87b	0.032661896
54	0x3ac3b08d	0.0014929936
55	0x3c96cc66	0.018408012
56	0x3b32c1cf	0.0027276163
57	0xbc65a183	-0.014015558
58	0xbcb30499	-0.021852778
59	0xbd0aa0ef	-0.033844884
60	0xbcfa4d4f	-0.030554442
61	0x3c37d489	0.011220106
62	0xbbe9cec2	-0.007135243
63	0x3c2fdae7	0.010733343
64	0xbc8501e6	-0.016236257
65	0x3c7efd3c	0.0155633055
66	0xba92540a	-0.0011163962
67	0x3c16ee76	0.009212127
68	0xbd142010	-0.03616339
69	0x3b057105	0.0020361554
70	0xbca1c8bd	-0.01974904
71	0x3cb0a65a	0.021563698
72	0xbbeec61c	-0.0072868
73	0x3bf71efe	0.0075415364
74	0xbcf701f6	-0.030152302
75	0x3c9054d1	0.017618569
76	0x3c405a01	0.011740209
77	0x3d0c19ee	0.034204416
78	0xbd490776	-0.04907938
79	0x3cc640be	0.024200793
80	0xbc3b51c5	-0.01143307
81	0xbcbfa792	-0.023395333
82	0xbd2baacc	-0.04191093
83	0xbcbddf26	-0.023177695
84	0xbaa52e04	-0.0012602215
85	0x3d3634d9	0.044483993
86	0x3cca00f6	0.024658661
87	0x3bc128c5	0.0058947527
88	0xbcadcdad	-0.021216238
89	0xbbdd90d6	-0.0067616506
90	0xbcc6b625	-0.024256775
91	0x3d143040	0.036178827
92	0x3d207db8	0.039182395
93	0xbbc28c43	-0.0059371307
94	0x3c96e241	0.018418433
95	0x3c2a3120	0.010387689
96	0xbd46e47c	-0.048557743
97	0xbc06f7dd	-0.008237806
98	0x3cafdfd7	0.02146904
99	0xbc8ddfdd	-0.01731866
100	0xbd1add1d	-0.037808526
101	0x39df59ea	0.00042600866
102	0xbc60f05d	-0.013729182
103	0x3bb7b239	0.0056059626
104	0xbcc19f2e	-0.023635473
105	0x3c133617	0.008985064
106	0x3d33a090	0.043854296
107	0x3cb30306	0.021852028
108	0xbce8a8b2	-0.028400753
109	0xbc925eec	-0.017867528
110	0x3cb00d52	0.021490727
111	0x3cab8c9f	0.020941077
112	0xbcd268a2	-0.025684658
113	0xbc61536e	-0.013752801
114	0xbdaea160	-0.085268736
115	0x3af2ddc8	0.0018529231
116	0x3c13b5cb	0.009015511
117	0xbd57a825	-0.05265059
118	0x3c5c03e2	0.01342866
119	0x3d30adcf	0.043134507
120	0xbcd76542	-0.0262934
121	0xbcda3ec5	-0.026641259
122	0xbd56ed95	-0.05247267
123	0xbd0946b1	-0.033514682
124	0x3bc1bf08	0.0059126653
125	0xbc918a70	-0.017766207
126	0x3d1104c3	0.03540493
127	0x3b9f36bd	0.0048588202
128	0x3cc7b40a	0.024377842
129	0x3d1c2b45	0.038127203
130	0xbc3d4fcc	-0.01155467
131	0x3cc88679	0.024478184
132	0xbcdf8693	-0.02728585
133	0x3cbaad8d	0.022787834
134	0xbcc704b4	-0.024294235
135	0x3d10ba01	0.035333637
136	0x3d107bd8	0.035274357
137	0xbce208f2	-0.027592156
138	0xbcfb820a	-0.030701656
139	0x3ce5b5a7	0.02804072
140	0xbcdd5862	-0.027019683
141	0x3c0c6513	0.00856902
142	0x3bbc51cf	0.005747057
143	0xbc87fc75	-0.016599873
144	0xb9da6585	-0.00041655838
145	0xbc8b969b	-0.017039588
146	0x3d0bf8fc	0.034172997
147	0x3ca3c637	0.019991977
148	0xbcbaae78	-0.022788271
149	0x3bfadd76	0.0076557947
150	0xbdad3624	-0.08457592
151	0x3d1da150	0.038483918
152	0xbcec2fd7	-0.028831406
153	0x3b9616c6	0.0045803515
154	0x3bced9fc	0.006312607
155	0xbc9381cb	-0.018006226
156	0xbcb7798e	-0.022396829
157	0x3cf8268f	0.030291824
158	0x3d21398d	0.039361525
159	0x3c84850a	0.01617672
160	0xbc28c720	-0.010301381
161	0x3ca96ac8	0.0206808
162	0x3c2acd57	0.010424933
163	0x3e71657e	0.23573872
164	0xbd4dc2ef	-0.05023473
165	0x3b1d834e	0.0024034563
166	0x3d068dbf	0.032850023
167	0x3c90d996	0.017681878
168	0x3d09fdde	0.033689372
169	0xbd096ca0	-0.03355086
170	0xbdde1452	-0.108437195
171	0x3befe469	0.00732093
172	0x3d234a61	0.039865855
173	0x3c008bb9	0.0078458125
174	0x3cb5fc6e	0.022215094
175	0xbc6d0377	-0.014466158
176	0xbd9cb1df	-0.07651114
177	0xbd1345fc	-0.035955414
178	0x3c4b92ba	0.012425119
179	0x3ba7df66	0.0051230667
180	0xbb144cc8	-0.0022628773
181	0x3c0c0455	0.008545955
182	0xbd311b3d	-0.043238867
183	0x39f9abaa	0.0004762088
184	0xbcf039d4	-0.02932445
185	0xbc2dfa78	-0.010618798
186	0x3d498da7	0.049207356
187	0xbb76386d	-0.0037570253
188	0xbd3e77e8	-0.04650107
189	0x3c90b85f	0.01766604
190	0x3d437ad7	0.04772457
191	0x38e53c98	0.000109308574
192	0x3b9ca817	0.00478078
193	0xbd5f6a3f	-0.054544684
194	0xbd0a4b45	-0.03376319
195	0x3a70ccdc	0.00091858
196	0x3d8f40ec	0.06994805
197	0xbcb44799	-0.022006797
198	0x3c9a6fe0	0.018852174
199	0xbb2a9416	-0.0026028208
200	0xbbc79eb2	-0.006091916
201	0xbc9a4737	-0.018832786
202	0x3c9d5440	0.019205213
203	0xbc8e939a	-0.017404366
204	0xbcfef0b2	-0.031120632
205	0xbbcbb0be	-0.0062161377
206	0x3c89985b	0.016796282
207	0x3b806920	0.003918782
208	0xbcb39e8e	-0.02192619
209	0xbd286b2b	-0.04111783
210	0x3d17f47f	0.037098404
211	0x3cd85b7e	0.026410814
212	0xbbdd87c8	-0.006760571
213	0x3ced17a9	0.028941946
214	0xbcdc7532	-0.026911352
215	0xbb8ebf25	-0.0043562823
216	0xbd9e877d	-0.07740686
217	0x3d1a8ec4	0.03773381
218	0xbb763997	-0.0037570947
219	0xbda5dcd1	-0.08098758
220	0xbc40dee2	-0.011771889
221	0xbcbac1db	-0.022797516
222	0x3db4d107	0.08828931
223	0xbd004d86	-0.031323932
224	0x3b65b164	0.003504836
225	0xbd0cbb1e	-0.034358136
226	0x3cda7658	0.026667759
227	0x3bb51c6d	0.0055270703
228	0x3cdf1e6b	0.027236184
229	0x3cb60bc3	0.022222405
230	0x3c8d547a	0.017252196
231	0xbc58c8ae	-0.0132314395
232	0x3d19ae80	0.03751993
233	0x3cc10a87	0.02356459
234	0x3d9333ba	0.071876004
235	0x3a945e78	0.0011319658
236	0x3d4988c0	0.04920268
237	0xbba58f75	-0.005052502
238	0xbb5243f9	-0.0032083972
239	0x3d05b12b	0.032639664
240	0xbd12a469	-0.035801325
241	0xbc3a7798	-0.011381052
242	0x3c06ca17	0.008226893
243	0xbbfb3ba9	-0.007667024
244	0x3c0eaad5	0.008707722
245	0xbb94eaae	-0.0045445776
246	0xbc2d7eed	-0.0105893435
247	0x3c3de2f6	0.011589756
248	0xbd0a4262	-0.033754714
249	0xbc947864	-0.018123813
250	0x3d326422	0.043552525
251	0x3b8cb087	0.0042935046
252	0x3ccef92b	0.025265297
253	0x3ca54e3a	0.020178903
254	0xbcd35633	-0.025797939
255	0x3bf03787	0.007330838

linear2.bias f4 [4]
0	0x3e55589f	0.20834588
1	0x3d59812a	0.053101696
2	0x3c1d1f89	0.009590038
3	0xbd116aba	-0.035502173
