PacManBetter/model/model.pth (torch, 440403 bytes, 4 tensors)

linear1.weight f4 [3048, 31]
000000 e4 f0 48 3d 3b 04 31 3e 5a ff f4 bd 16 b0 bf 3d
       0.049057856 0.1728677 -0.11962767 0.093597576
000010 24 4a 2b bd 28 17 02 be 4b 06 0c be fc 32 31 3e
       -0.041818753 -0.12704146 -0.13674276 0.17304605
000020 47 86 f7 3d 2e d3 14 3d 7b 3b a4 3d 8b b0 03 3c
       0.12086158 0.03633421 0.080191575 0.008037697
000030 1c 10 d5 bd 31 ff 00 be ad 85 0a bd 43 94 04 be
       -0.10403463 -0.12597348 -0.03381889 -0.12947182
000040 d9 af d5 bd c2 f6 12 be 43 1e 2d 3d c5 b4 16 bd
       -0.10433931 -0.14351943 0.042265188 -0.03679349
000050 40 9c 22 3e 88 7a 2d 3d 26 90 11 bc cb 44 2d 3e
       0.15879917 0.042353183 -0.008884465 0.16920774
000060 f7 0c 70 bd a7 60 e5 bc b2 e0 d9 3d fa 03 12 3e
       -0.058606114 -0.028000189 0.1063856 0.1425933
000070 a6 d7 a9 bd e4 62 c1 3d 6b 2c a7 3d 0b 60 64 bb
       -0.08293085 0.0944269 0.08162769 -0.0034847285
000080 0f dc 1d 3e 07 ff e2 3c ea b7 3b 3b 53 4b 27 3e
       0.15415977 0.027709497 0.0028643557 0.16337328
000090 5e 4f 00 3e d9 b6 a2 3d 2e 3b 1b be a2 2a 02 be
       0.12530276 0.07945032 -0.15159294 -0.12711576
0000a0 bd c5 1d be 25 fa 49 3d 42 ee b2 3d f4 14 b4 3d
       -0.15407462 0.049310822 0.0873685 0.08793059
0000b0 a5 c9 25 3e f2 2c a2 3d f7 f2 8c 3d c4 f2 a1 bd
       0.16190203 0.07918729 0.06882279 -0.07907632
0000c0 34 21 2a 3e 2b f9 b9 bd 69 0f 13 3e 25 75 d2 3d
       0.16614228 -0.09080728 0.14361347 0.1027625
0000d0 26 8e cc 3d e3 e9 4d bd 9b 70 09 3e 83 ec ca bd
       0.0998805 -0.05027188 0.13421862 -0.09908392
0000e0 4f b7 b4 bd 95 fa 02 be f3 2c 1c 3c 4f 68 65 bd
       -0.08824026 -0.12790902 0.009532201 -0.05600768
0000f0 06 78 73 bd 48 38 05 3e 1a a1 2e be eb 0a 18 be
       -0.059440635 0.13009751 -0.17053643 -0.14847915
000100 4b fb 93 3d c9 db c1 bd c3 44 28 bd df 6e f0 bc
       0.07225665 -0.09465749 -0.0410812 -0.029349742
000110 c7 28 cd 3d 8d 81 10 be 03 7c 56 3d cf 8f 80 bd
       0.10017543 -0.1411192 0.05236436 -0.06277429
000120 f8 c4 19 bd de 61 a1 3d 9f c6 12 be 6b 39 fe 3b
       -0.03754136 0.07879995 -0.1433358 0.0077583096
000130 28 10 a3 bd fc 0d bd 3d 9a 8e 5a bd 54 05 66 bd
       -0.07962066 0.09231183 -0.05335865 -0.056157425
000140 1a ff e1 3d 85 85 86 3d 78 e6 0c be f1 33 05 3e
       0.11034985 0.065684356 -0.13759792 0.13008095
000150 00 bc 95 39 fe b7 59 3d de c5 10 bd d2 23 27 bc
       0.00028559566 0.053153984 -0.03534495 -0.010201411
000160 0c 28 2f 3e 7c 4d ff 3d ca dc ab 3d 43 05 ff bd
       0.1710512 0.12465951 0.083917215 -0.124521755
000170 9c be 1e be 78 ba 1b 3e be 31 27 bd a8 04 32 3b
       -0.15502399 0.15207851 -0.040818922 0.002716342
000180 ec 32 33 3d b8 e3 40 3d a1 14 16 bc c4 ce ea 3d
       0.043749735 0.04709217 -0.009160192 0.11465219
000190 49 ab c2 3d 70 ad 22 be 8b d8 05 be 78 11 1b 3e
       0.09505326 -0.15886474 -0.13070886 0.15143383
0001a0 c0 02 19 bc c6 d4 16 3e 97 3d 98 3c 01 08 62 3d
       -0.009339035 0.14729604 0.018584056 0.055183414
0001b0 4e 3a 49 bd b7 9a 18 3d f1 eb e8 bd ce 29 00 be
       -0.04912787 0.037256923 -0.11373127 -0.12515947
0001c0 69 d7 34 be 1f 15 a8 3c 9d 27 23 be 0a 32 1f be
       -0.17660297 0.020517884 -0.1593308 -0.15546432
0001d0 61 a6 bf 3c 07 78 ea bd c3 2a a8 bd c6 15 af 3d
       0.023394765 -0.11448675 -0.08211281 0.08549075
0001e0 ff 96 da bd a3 4d 0e bd 91 70 21 be 30 b2 3f 3d
       -0.106733315 -0.03474201 -0.15765597 0.046800792
0001f0 d6 97 c5 bd 17 74 33 be e9 55 0b 3e bc 1e 60 bc
       -0.09648101 -0.17524754 0.13606991 -0.013679203
000200 bb 16 67 bd 61 cd 92 bc df a8 e6 bd 3a e3 6a 3d
       -0.05641816 -0.017920198 -0.11262678 0.057345606
000210 5a 27 ad 3d 3a 14 7b bd ad d2 ab 3d 8a 9b e5 bd
       0.08454771 -0.061298586 0.083897926 -0.11211307
000220 a5 82 2a be 6b 4f 22 be 99 87 f1 bc ab c8 61 bd
       -0.166514 -0.15850608 -0.029483603 -0.055123013
000230 9d d0 b3 bc 5c fb 05 3d c6 57 77 3b d9 79 03 be
       -0.02195006 0.032710418 0.0037741526 -0.1283945
000240 79 19 15 3e 48 db ea bd 46 83 bc bd ca 7e b9 bd
       0.14560498 -0.11467606 -0.09204726 -0.09057386
000250 25 23 9b 3d 0c f1 0a 3e 56 5f 0b bd 05 ce 0f 3e
       0.07575063 0.13568515 -0.034026466 0.14043434
000260 ca 10 a6 3d ba 7d 25 3e 9e 4e fd bd f9 e0 0a be
       0.08108671 0.16161242 -0.12368511 -0.13562383
000270 2e c5 04 be 0f d5 33 bc d8 ed 36 be a4 4e 7f bd
       -0.12965843 -0.01097609 -0.17864168 -0.062330857
000280 00 98 d4 bc 9e 8d 2d be 03 af d9 3d f5 3b ee 3d
       -0.025951385 -0.16948554 0.10629084 0.1163253
000290 4b b2 04 be 10 fc 32 3e fa 38 1c be c0 d4 36 3e
       -0.12958638 0.17478967 -0.1525611 0.17854595
0002a0 6f 3a 11 3d c0 a5 fd 3d 08 b5 fe bd 8d 86 81 bc
       0.035456117 0.1238513 -0.12436873 -0.01581123
0002b0 50 97 e8 bd 83 4c 09 3e bb 06 f1 bc e4 b7 f6 3d
       -0.113569856 0.13408093 -0.029422155 0.12046793
0002c0 e0 6d 27 be 22 d5 74 bd 59 ae 16 bd b8 86 c3 bd
       -0.16350508 -0.05977357 -0.036787365 -0.0954718
0002d0 9e 59 af bd 2b f4 c6 3d d2 8e 02 be 77 18 88 3d
       -0.08562015 0.0971454 -0.12749794 0.06645291
0002e0 8b fb 20 3e cb cb 86 bc 8d 85 05 3e 44 71 8c bd
       0.15720956 -0.016454598 0.13039227 -0.06857541
0002f0 22 e2 8b 3d fd 59 22 3e b2 23 92 bc ef 48 1e 3e
       0.06830241 0.1585464 -0.017839286 0.1545751
000300 6c 42 8c bc dd 15 28 bd bd ce 04 be c0 c4 71 bd
       -0.017121516 -0.041036475 -0.1296949 -0.059025526
000310 e2 ea ca 3b 03 45 a0 bd 9e f3 58 bd 57 8e 37 be
       0.006192551 -0.07825663 -0.052966706 -0.17925392
000320 59 dd 1d 3e 38 c9 23 3c 5e fd a2 bc ea a7 66 3d
       0.15416469 0.009996705 -0.019896206 0.05631248
000330 94 d4 00 be 2a 97 01 3d 20 2b 16 be 19 07 c5 3c
       -0.12581092 0.031638302 -0.14664888 0.024051236
000340 40 ab 96 3d e6 ce 98 bd 6e c5 1d 3e 08 b4 ab bd
       0.07356882 -0.07461338 0.15407345 -0.083839476
000350 62 d2 04 3e 9e aa 7e 3d a4 9c 8e 3d aa 3c 0d be
       0.1297088 0.062174432 0.069634706 -0.13792673
000360 79 95 1f bc a5 20 b0 bd f4 2a 6a bd a8 93 11 be
       -0.009740227 -0.085999765 -0.05716987 -0.14216483
000370 1b df a7 bd 7d e4 26 3e 76 08 24 3d c5 23 0a 3d
       -0.08196851 0.16298099 0.04004713 0.03372552
000380 94 c6 2b 3e 0f 45 ae 3b 8a 28 f3 b8 4a 58 1b 3e
       0.1677497 0.005318291 -0.00011594694 0.15170398
000390 07 8b 20 be de 25 83 3d e0 4b 3a bd 84 70 5a 3d
       -0.15678035 0.06403707 -0.045482516 0.05332996
0003a0 77 80 d7 3b 65 76 ce 3d 4d fc 99 3d cc 98 76 3d
       0.0065765935 0.10081176 0.07518826 0.060204312
0003b0 fc e4 cb 3c d2 e6 df bd bd 54 33 be 5d 03 06 3e
       0.024889462 -0.10932697 -0.17512794 0.1308722
0003c0 70 6e f7 3d cd 9e 00 3e 42 e4 07 3e c8 92 c3 ba
       0.12081611 0.12560578 0.13270667 -0.0014921064
0003d0 93 8a 2b bd cf 7c cf bd 2d e4 f9 3d 28 45 16 3e
       -0.0418802 -0.10131227 0.12201724 0.14674819
0003e0 79 8c c0 3a b8 73 1b be 44 56 f9 bd 46 1c 2f 3d
       0.0014690302 -0.15180862 -0.12174657 0.042751573
0003f0 ec 41 06 3e fd 97 db bd 0b d7 54 bd c6 ba c1 bd
       0.13111085 -0.10722349 -0.051962893 -0.09459452

linear1.bias f4 [3048]
000000 09 85 15 3d 26 0b 9e bc 76 ea fb bd 28 14 08 be
       0.036503825 -0.019292425 -0.12300579 -0.13288939
000010 34 cf ef bc 3e 77 34 bc 24 85 d4 bc ea a3 bc 3c
       -0.029273607 -0.011014758 -0.025942393 0.023027379
000020 49 c1 9d bd 4f 27 ed 3d 65 a8 09 be e2 00 98 3d
       -0.07702882 0.11579763 -0.13443144 0.074220434
000030 8a b9 28 be eb bb 21 3e d2 a0 01 be 66 c5 f9 3d
       -0.16477028 0.15794341 -0.12659004 0.12195854
000040 76 63 b3 bc 14 e1 f9 3c e3 b5 23 3d bf 89 f2 3d
       -0.021898013 0.030502833 0.039968383 0.11842679
000050 27 82 aa bd f8 ad 13 be f1 90 07 3e ee 2b 21 3e
       -0.08325606 -0.14421833 0.13238885 0.15739414
000060 b4 d5 96 bb 2d f8 9a bd 9f 71 e9 3d 8d ce 61 bd
       -0.004603112 -0.07566867 0.11398625 -0.055128623
000070 88 44 80 3d a3 13 a3 bc d9 3c e6 bc b6 7b 07 3e
       0.06263071 -0.019906824 -0.028105186 0.13230786
000080 30 78 34 bd 7d 63 8d bd 2d 02 c9 3c b9 8f bc 3d
       -0.044059932 -0.069037415 0.02453717 0.092071004
000090 7b 3a ad bc 9d 97 ac ba f8 da d8 bd 77 a7 93 3d
       -0.02114605 -0.0013167743 -0.1058864 0.07209676
0000a0 4f 9e 11 3e 84 c7 c4 3d 92 1c ec 3d fa 5c af 3c
       0.14220546 0.09608367 0.11528887 0.02140664
0000b0 7a dc f7 bd 2e 57 0d be 88 ac 25 3e 0d dd ee 3c
       -0.121025994 -0.13802788 0.16179097 0.02915814
0000c0 22 6c cb bd 1b 01 53 3d 09 f7 0b 3d fe a2 a9 3d
       -0.09932734 0.051514726 0.034171138 0.082830414
0000d0 5b 61 32 3e fb 6d 7f bc 17 ff 53 bd 4b 66 dd 3d
       0.1741995 -0.015590186 -0.051756945 0.108105265
0000e0 67 54 2c be 44 3a 10 3e c5 b9 27 be 0e c1 16 be
       -0.16829072 0.14084727 -0.16379459 -0.14722082
0000f0 da d1 b8 3d 9b 71 df bd bf fe 22 be 18 4f 31 be
       0.09024401 -0.109103404 -0.1591749 -0.17315328
000100 14 b9 1e 3e 89 77 0f 3d 63 4c 02 be d7 1f 0f 3e
       0.15500289 0.035026107 -0.12724452 0.1397699
000110 74 42 e4 3c 34 97 fd 3d d0 f0 86 bd f2 9a 87 3d
       0.027863719 0.12382355 -0.065889 0.0662135
000120 27 09 14 be a7 6b 8c bd cd 05 7d bd 3f 13 18 bb
       -0.14456616 -0.068564706 -0.06177311 -0.002320483
000130 5f 49 13 3e 4e d3 07 be 91 18 1f 3e bc 33 f6 3d
       0.14383458 -0.132642 0.15536715 0.12021586
000140 e0 16 09 bb 85 37 2a 3e 4a a7 02 3d 5b 21 ea bd
       -0.0020918176 0.16622742 0.03189782 -0.11432143
000150 4f d8 db 3d 36 fe b7 bd 30 51 29 3e 7a 80 27 bd
       0.10734617 -0.08984034 0.16534877 -0.04089401
000160 58 79 db bc 69 e6 23 3e 7c aa 91 3d 81 1e 22 be
       -0.02679126 0.16005863 0.071125954 -0.15831949
000170 49 69 e5 3d 6b 1b 32 3e 47 a7 eb 3d ce ca 74 bd
       0.11201722 0.17393272 0.11506515 -0.059763722
000180 d3 a7 a6 3d ad 7b d6 3c 85 ee e1 bd 1f eb 18 be
       0.08137479 0.02618202 -0.11031822 -0.14933442
000190 f7 c8 8b bd b6 6e 6f bd ab 8b 9e 3d bb 88 61 bc
       -0.068254404 -0.05845519 0.07741483 -0.013765509
0001a0 af 9a c2 bd ef 3e 5c 3d e2 2a ae 3c c4 22 07 3c
       -0.0950216 0.053770956 0.021260682 0.008248035
0001b0 16 cc dd 3d 19 07 1c be c6 4c 31 3c 58 2e e1 3c
       0.10829942 -0.15237083 0.010821527 0.027487919
0001c0 6f bd 4d 3d 8e 3a 53 bd bc 86 34 bd 73 02 b5 3d
       0.050229486 -0.051569514 -0.044073805 0.08838358
0001d0 21 da 15 3e 07 8c 2a be d3 23 ca 3d 74 c7 be 3d
       0.14633991 -0.16654979 0.09870114 0.093153864
0001e0 8e 57 d2 bc 32 d4 1a 3c c3 56 25 3e a4 de 25 3e
       -0.025676515 0.009450005 0.16146378 0.16198212
0001f0 a6 6f 9c bd a9 a6 36 be b4 35 25 3e 82 6f 96 3b
       -0.07638483 -0.17837013 0.16133767 0.0045909295
000200 2a 2a 00 bd fa 2b 31 3d 82 f4 31 3e 0c c1 23 3d
       -0.03129021 0.04325483 0.17378429 0.039979026
000210 ba fb 9b 3d 26 eb 72 3d 20 47 be bd ed 8b 24 3e
       0.076163724 0.059306286 -0.0929091 0.16069002
000220 96 b7 11 3e 2f 39 c7 bd e5 05 f2 bb 8a 13 a4 bd
       0.14230189 -0.09727704 -0.0073859566 -0.08011539
000230 de a0 14 3e 73 50 ad bd 97 c4 35 3e 04 d7 1e 3e
       0.14514491 -0.0846261 0.17750774 0.1551171
000240 16 17 c1 bd 4a e9 21 be 3c 4a 10 be a9 a8 fb bd
       -0.094282314 -0.15811649 -0.14090818 -0.12288029
000250 e0 ea fb bd 77 6c 6f 3d c0 6f 34 3e 77 b3 da bd
       -0.12300658 0.05845305 0.17620754 -0.106787615
000260 34 d9 30 3e be 4a 22 be 46 8b 25 3e 30 d2 20 3e
       0.17270356 -0.15848824 0.1616641 0.1570518
000270 de b1 1d 3e 90 f3 68 3d e7 6e 36 be 57 d5 c5 3d
       0.15399882 0.056872904 -0.17815743 0.09659832
000280 e4 2d 20 3e 50 1e 8a bd 7c f7 22 be 8e 1f 07 bd
       0.15642506 -0.06744063 -0.1591472 -0.032989077
000290 12 e4 e6 bd 97 e6 89 3c 38 3b ba bd 58 ce 82 bd
       -0.1127397 0.016833587 -0.09093326 -0.06387013
0002a0 1e 1d 49 bd ad 70 a8 bc a1 dd 20 3e d2 ea 59 bd
       -0.049100034 -0.02056154 0.15709545 -0.053202458
0002b0 fe ef 1a 3d 7e e1 8d bd 8d ac 5a 3d 5c 70 22 3e
       0.03782653 -0.06927775 0.053387213 0.15863174
0002c0 0d 14 c7 bd c4 4d 84 bd 1c 22 86 bc ce c4 be 3d
       -0.09720621 -0.06460145 -0.016373686 0.09314881
0002d0 09 66 05 be fe b1 34 3e f8 69 b0 3d 5d c5 00 bd
       -0.13027205 0.17646024 0.08613962 -0.03143822
0002e0 46 bb 67 bc fc 3a 78 3d 63 69 29 be 6e a8 a3 3d
       -0.014143771 0.060603127 -0.16544108 0.0799111
0002f0 f9 ed c8 3c 36 62 b7 bd 16 97 31 be 47 80 2e be
       0.024527537 -0.08954279 -0.17342791 -0.17041121
000300 74 49 2e 3e bc e5 33 be 31 62 a5 bd b1 7a 0a 3e
       0.17020208 -0.17568105 -0.08075369 0.13523366
000310 ce cf 37 3d 20 00 0c be 4b 14 13 be 6f d5 a6 bd
       0.044875912 -0.13671923 -0.1436321 -0.08146178
000320 e2 54 2a 3e e7 ed 2b be 96 7c 14 bd 53 43 9a 3d
       0.16633943 -0.16789971 -0.036251627 0.07532372
000330 42 0a 32 be 8e cb 9a bd f9 5c 2a 3d db fb e5 bd
       -0.17386726 -0.07558356 0.041592572 -0.11229678
000340 a0 f8 0f 3c 31 49 2e 3e 4b 9a b0 3c 41 63 9b 3c
       0.008787304 0.17020108 0.021557948 0.018968226
000350 22 28 04 3e 73 58 9f 3c 6a 4c 05 3e 5a 12 bd bd
       0.12905934 0.019451356 0.13017431 -0.09232016
000360 3e 25 f6 bd 96 c2 ef bd eb 57 29 3d 98 83 02 be
       -0.12018822 -0.11707036 0.04134361 -0.12745512
000370 8c 58 18 be b9 7c b2 bd a1 63 7a 3d 21 07 0d be
       -0.14877528 -0.08715195 0.06113017 -0.1377225
000380 66 80 25 3d df 38 ea bc 36 29 bf 3a ac da 0d be
       0.040405653 -0.028591571 0.0014584425 -0.13852948
000390 92 a3 1f bd 17 ba c4 3c 3e fa d4 3b 66 9f 20 3d
       -0.038974352 0.024014516 0.0064995578 0.039214514
0003a0 78 89 21 3e 96 d6 05 bc dd c8 f4 3d d7 e2 09 3e
       0.15775096 -0.008168837 0.11952374 0.13465439
0003b0 fe 1e b7 3d 02 81 d6 bd 7a 09 1c 3e 59 0f 95 3d
       0.08941458 -0.10473825 0.1523799 0.07278318
0003c0 1a 74 02 3e 14 65 e3 bd 80 69 12 3e 6d 70 8c bd
       0.12739602 -0.111032635 0.14298058 -0.06857381
0003d0 d6 21 c5 3d 73 27 02 3e a8 77 2a 3e eb 76 84 3b
       0.09625594 0.12710361 0.16647208 0.0040424964
0003e0 d0 aa 80 3a 44 d1 9e bd 32 ef b8 3c 12 1d 33 be
       0.0009816531 -0.07754758 0.022574995 -0.17491558
0003f0 4f 49 98 bb 7b 6e 4e 3d ed f6 15 be 61 28 f7 bd
       -0.004647411 0.05039833 -0.14644976 -0.120682485

linear2.weight f4 [4, 3048]
000000 e6 e4 22 bb de de 8a 3c 45 06 9d bb 0d 58 0e bc
       -0.0024855672 0.016951974 -0.004792007 -0.008687985
000010 50 06 0e 3c 40 05 04 3b 10 bf fb b9 13 cc 57 3c
       0.008668497 0.002014473 -0.00048016803 0.013171214
000020 12 66 60 3c fc 25 94 bb a6 77 57 bb 01 07 08 bc
       0.01369621 -0.0045211297 -0.0032877713 -0.008302451
000030 d6 6c 07 bc 23 f8 8e bc e5 25 88 3b a6 d0 08 bc
       -0.008265695 -0.017452305 0.004154908 -0.008350527
000040 4c ee 4a 3c 1f f1 62 bb 2a 86 c9 39 18 13 6c bc
       0.012385916 -0.0034628583 0.00038437668 -0.014408849
000050 de 87 65 3c d9 1e 1c 3c 23 94 04 bc 78 a5 f4 3b
       0.014009444 0.009528839 -0.008091959 0.0074660145
000060 41 cc 7f 3b 57 a3 8a bc ca 6a 1b 3a 50 c5 2b bc
       0.0039031657 -0.01692359 0.00059286936 -0.010484055
000070 1c ee d9 bb 6c 95 18 3c ad 6a 3a bc 11 8e b1 ba
       -0.0066506993 0.009312969 -0.011377973 -0.0013546367
000080 e8 d5 1a bc 43 4b 07 3c 2a f7 aa b9 a6 40 92 bc
       -0.009450413 0.00825769 -0.00032609078 -0.017853092
000090 a6 43 66 3c 45 85 9c 3b a6 fe 0a bc 70 51 84 3c
       0.014054215 0.004776629 -0.0084835645 0.016152114
0000a0 7c d3 ee 3b 31 0a 2f bc e1 46 87 bc 35 d5 d4 bb
       0.0072883945 -0.010683582 -0.01651329 -0.006495143
0000b0 91 2d ec 3b f1 91 86 3a 8f 71 2e bc a9 89 6b bc
       0.0072075804 0.0010266883 -0.010647192 -0.014376082
0000c0 3c 95 29 bb 28 42 91 bc 4b d9 5b 3c 82 3a 0f bc
       -0.0025876304 -0.017731741 0.013418506 -0.008741977
0000d0 b1 a0 64 bc e3 45 2d bb a7 67 22 3c bc 27 29 bc
       -0.013954327 -0.002643936 0.009912408 -0.010324415
0000e0 62 5c 05 3b b0 24 55 39 a4 19 93 bc 02 89 36 bc
       0.0020349254 0.0002032693 -0.017956562 -0.011141064
0000f0 3d 1a d0 3b 81 27 8a 3c 45 37 23 ba dc 38 36 bc
       0.006350784 0.01686454 -0.00062261923 -0.011121955
000100 34 33 75 bb c5 94 29 38 bf ee b5 3b a4 0c 62 3c
       -0.0037414553 4.0431292e-05 0.0055521424 0.013796959
000110 ce 77 08 3b d4 89 ed bb 4e 10 51 bb ee 0e 4c 3b
       0.0020823362 -0.0072490964 -0.0031900587 0.0031136828
000120 26 f4 86 bc a1 1e 5c bc c2 9d 0f 3c 6e b2 b4 3a
       -0.01647384 -0.013435037 0.00876564 0.0013786086
000130 25 e8 c0 3b 2d ec 7f bc 32 ad 47 3c c1 ac 7e 3c
       0.005887049 -0.015620274 0.012187289 0.015544117
000140 f5 92 61 bc e4 35 8c 3c 22 17 0d 3c 89 56 57 bc
       -0.013767947 0.01711554 0.008611472 -0.01314319
000150 02 b8 5a bc a2 57 66 3c 2b 86 08 bc 93 00 92 bc
       -0.013349535 0.014058979 -0.008332769 -0.01782254
000160 41 7b 6d 3c bf ef 27 3c f2 a3 50 bb b0 a5 41 3c
       0.014494718 0.010250031 -0.0031836 0.011819288
000170 c4 f1 65 bc 5d 91 09 3c c8 ba dd bb 26 aa 38 3c
       -0.014034692 0.008396474 -0.006766651 0.011271035
000180 04 0d 57 3c f7 05 fb bb 85 58 f7 3b cf 23 40 bc
       0.013125662 -0.007660623 0.007548394 -0.011727287
000190 ee ec bc 3a b2 e1 8b 3c 10 b7 8f bc bc cd 67 bc
       0.0014413872 0.017075393 -0.017543346 -0.014148172
0001a0 0a a0 c5 ba 30 2d 44 bc c0 b5 be 3a ed a0 f3 3b
       -0.0015077603 -0.011973664 0.0014550015 0.0074349553
0001b0 9d 47 90 3c 7f 15 89 bc d6 fb d0 bb 3c 59 35 3c
       0.017612273 -0.016733883 -0.0063776774 0.011068638
0001c0 fc a8 02 3b b1 fa 04 bc 07 30 aa 3b 81 f1 59 3c
       0.0019937148 -0.00811641 0.0051937136 0.013302208
0001d0 e1 7d d9 3b ca 6c 2e 3b c1 d3 82 3b 17 d4 93 bc
       0.0066373204 0.0026615136 0.003992528 -0.018045468
0001e0 5b 19 87 bb a9 0f 23 bc 21 2c 09 3c 3e d2 aa 3a
       -0.0041228957 -0.009952464 0.008372338 0.0013032628
0001f0 24 1a 0f bc 6b 2a 47 ba e9 fa 3a bb 29 ac 7b 3c
       -0.00873426 -0.00075975683 -0.0028530902 0.01536087
000200 98 ba 5f 3a 35 be 64 3c 88 1c 72 3b 6d 14 02 bc
       0.00085345795 0.0139613645 0.0036943275 -0.00793944
000210 ef 43 71 bc cb d4 8c 3c ad 7d 0b bc 8d d6 92 3c
       -0.014725669 0.017191311 -0.00851385 0.017924571
000220 4e c1 15 3b 25 8b a4 3b d4 c0 10 3a c4 ef 79 bc
       0.0022850814 0.00502147 0.00055218977 -0.0152549185
000230 1c d7 ef b8 4b e0 12 bc d6 d5 42 bc bd 95 53 3c
       -0.00011436475 -0.008964608 -0.011891803 0.012914118
000240 ec 14 f6 39 d4 c4 d7 bb 08 c3 06 3c bc 77 85 bb
       0.00046936364 -0.006584743 0.00822521 -0.0040731113
000250 c5 af 6b 3c f1 93 84 3c ab 77 53 3c 30 68 81 bb
       0.014385168 0.016183825 0.012906949 -0.0039491877
000260 0f e6 1e bc d4 2c f2 3b 45 86 9e bb b1 d4 18 bc
       -0.009698405 0.007390598 -0.0048377835 -0.009328053
000270 6f 40 75 3c cb 8a 9a bb 53 e3 66 ba bd 24 ed 3b
       0.014968975 -0.0047162524 -0.00088076777 0.0072370456
000280 d1 a9 0a 3c b3 22 e0 3b 59 79 8c 3b 76 d1 cf bb
       0.008463339 0.006840074 0.0042869267 -0.0063421084
000290 2d 40 8e bc ff 4b 22 3c f2 f6 05 bc ed 0d 6f bc
       -0.017364586 0.009905814 -0.008176552 -0.0145907225
0002a0 7f 05 91 bc 39 bc 41 3c 0a 90 09 bc 55 f2 7c 3c
       -0.017702816 0.011824661 -0.008396158 0.015438636
0002b0 5a 53 7a 3b 53 85 59 3b e1 52 f3 3b c0 d2 a7 bb
       0.0038196654 0.003319104 0.0074256514 -0.005121559
0002c0 a0 16 81 3b 97 af 3c bc b6 d1 86 bc 6c 3c d9 bb
       0.0039394647 -0.011516473 -0.01645742 -0.0066295173
0002d0 fd b8 34 bc 4c ee 4a bb 40 20 05 bb da 45 63 bb
       -0.011030433 -0.003096479 -0.0020313412 -0.0034679086
0002e0 5c ce e8 38 ba 02 86 bc ed a9 41 3c c6 ff 92 3c
       0.000111010595 -0.016358722 0.011820299 0.017944228
0002f0 9d 0e cf 3b 07 37 0d bc be 48 43 bb 6b 7f a1 bb
       0.0063188807 -0.008619077 -0.0029797996 -0.0049285195
000300 5f 90 87 3c 14 e0 1c 3c 9b a5 5c 3c 01 ee a0 bb
       0.016548334 0.009574909 0.013467218 -0.004911185
000310 b9 25 90 bc df a7 5d 3c 5a aa 19 bc 14 26 88 3b
       -0.017596113 0.013528793 -0.009378994 0.00415493
000320 15 6c 42 3c 9b e5 01 bc d1 61 8b 3c 50 b2 1e bc
       0.011866589 -0.007928277 0.017014416 -0.009686068
000330 b6 5d d9 3b 0a c3 cd bb 0d f2 1e 3c 69 ee f4 3b
       0.0066334857 -0.006279354 0.009701264 0.00747471
000340 14 21 9d 3b 3c 78 12 3a c6 e2 cd bb 90 bc 74 bb
       0.004795203 0.00055873743 -0.006283137 -0.0037343837
000350 f5 ad 04 3b 71 11 09 ba d4 27 ec ba b6 09 02 3c
       0.0020245288 -0.0005228734 -0.0018017241 0.007936886
000360 43 be 72 3c a0 16 e1 ba 90 2b 10 bb 92 8f 83 bc
       0.01481587 -0.001717288 -0.0021998622 -0.01605967
000370 6b 76 3e bc 3a 63 73 ba 35 cf 8c 3c e1 d1 4c 3b
       -0.011624913 -0.00092845 0.017188648 0.0031253027
000380 b4 36 14 bc 39 54 59 3c da 47 8b bc 24 72 81 3c
       -0.009046245 0.013264709 -0.017002035 0.015801497
000390 fa 40 68 bc bb af 4a 3a 2e 37 c7 3b de 8e 8c 3b
       -0.014175648 0.00077318744 0.006079576 0.004289492
0003a0 af 16 39 bc 5c 9f 65 bc 28 fe b1 bb 57 b7 99 3b
       -0.011296912 -0.014015045 -0.005431909 0.0046910453
0003b0 71 32 10 3b f7 03 61 bc 24 2c 81 bc dc 99 df ba
       0.0022002722 -0.013733855 -0.015768118 -0.0017059403
0003c0 03 b7 92 3b 30 fe 91 bb fd 5d 0b 39 43 14 82 bb
       0.004477383 -0.0044553503 0.00013291086 -0.0039697005
0003d0 7d 1d 19 3c ad 96 06 bc 33 e3 d0 3a 2e 7f 3b 3b
       0.009345409 -0.008214635 0.0015936851 0.002860974
0003e0 23 57 29 bc 74 67 1a 3c ef 83 12 3c 91 41 1f 3c
       -0.010335716 0.009424079 0.008942588 0.009720222
0003f0 e9 80 35 b9 bd 58 6d 3b 64 80 7b 3c e2 8e 12 ba
       -0.00017309528 0.0036216222 0.015350435 -0.0005590749

linear2.bias f4 [4]
000000 e6 ad 0f 3c f8 ce 0d 3c 11 a2 43 bc 4c de 10 3c
       0.008769488 0.008655302 -0.011940495 0.008842062
