PacManBetter/model/model.pth (torch, 278931 bytes, 4 tensors)

linear1.weight f4 [256, 266]
000000 b1 9b 09 bd 6f 9b 96 bc c1 9a 25 3d ab ef 03 bd
       -0.033595745 -0.018384663 0.040430788 -0.032210987
000010 ca b8 25 bd a6 3f ac bd 11 d1 41 bd 2e 0e d8 bc
       -0.04045943 -0.084105775 -0.047318522 -0.026373949
000020 f7 cd 2c bc 42 3b 54 3c ab b9 f1 bc a1 87 ae bc
       -0.010547153 0.012953581 -0.029507479 -0.021304907
000030 9c 90 ef bb 0f 6a 66 bd 49 20 3c 3b 65 64 11 3d
       -0.00731094 -0.05625349 0.0028705767 0.035496134
000040 08 5c 10 3d c5 0b 56 3d 99 7a 2e bd 96 2e 37 bd
       0.035244018 0.052257318 -0.042597387 -0.044722162
000050 82 28 6b bd 62 37 84 bd fc 8a 27 3d f2 e9 33 3d
       -0.057411678 -0.06455876 0.04090403 0.04392428
000060 96 8d c1 bc ec 55 3b 3b e8 c1 1a 3c e3 f8 17 bd
       -0.023627084 0.002858515 0.009445645 -0.03710259
000070 b5 4e 1b bd 63 4a 6b 3d e8 8c 30 3d 6b f6 16 39
       -0.037916858 0.057443988 0.04310313 0.00014396913
000080 a1 de 97 bc 1f 9a 3e 39 5a 31 6d bd 60 b7 5d 3d
       -0.018538775 0.00018177227 -0.057908393 0.05412996
000090 e2 ee 9e 3b b0 96 5f bd 24 d4 39 3d 48 8d 44 3d
       0.0048502544 -0.054587066 0.04536833 0.0479863
0000a0 5a 17 3f bc 9f 53 2c bd 1f 78 7c bc 4b 8a 72 bd
       -0.011663282 -0.042071935 -0.0154094985 -0.059213918
0000b0 57 38 7b 3c 15 78 09 3c 52 27 8b 3c 14 43 aa 3c
       0.015333257 0.008390446 0.016986523 0.020783938
0000c0 f1 c3 78 3d b5 83 2e 3d c2 2b ff 3c 92 0b f1 3b
       0.06073374 0.042606074 0.031148795 0.0073561156
0000d0 c8 19 72 bc 65 92 a1 3c 52 1c 36 3d 5c d3 a2 bb
       -0.014776655 0.019723127 0.044460602 -0.0049690437
0000e0 86 98 1c 3a cc db 28 3c 68 54 6d 3d 01 7d 08 bc
       0.00059736555 0.01030631 0.057941824 -0.0083305845
0000f0 b5 e4 5c bd 73 4f 48 3c 96 82 5e 3d 10 4d 4b bd
       -0.05392905 0.012225973 0.054323755 -0.04963404
000100 07 14 02 3d d3 64 74 bd 0d 7a 16 3d ec 28 76 3d
       0.03175738 -0.059666466 0.03673749 0.06009762
000110 60 27 25 bd e9 97 9e bc df f0 8a bc 79 ad 55 3d
       -0.040320754 -0.019359546 -0.01696056 0.05216739
000120 fe 7e 3b 3d 73 c4 55 3d f2 06 30 bd 9c 0b 6a 3d
       0.045775406 0.0521893 -0.042975374 0.057139978
000130 ab 86 5e 3d 42 01 13 bd d1 fc 0b 3d 9e b7 15 3d
       0.054327648 -0.03588987 0.03417665 0.036552064
000140 44 5a 69 3d 37 2a f4 bc f9 f4 03 bc 56 86 45 bb
       0.05697085 -0.029805286 -0.0080540115 -0.0030139885
000150 3f 65 19 bc 79 97 85 bc e6 4e 9a 3c e6 19 38 bd
       -0.009362518 -0.01630758 0.01883645 -0.044946574
000160 c6 06 18 3d 87 8c 95 bc af 12 b6 3c f2 b8 4c bc
       0.037115835 -0.018255485 0.022225706 -0.012495266
000170 02 8f 50 3c 45 4b bd bc 40 05 bf bc 61 03 20 bd
       0.012729408 -0.02310718 -0.023317933 -0.039065722
000180 93 44 6e bd 64 eb bc 3b 5a df 19 3c 6b 8c 2a bd
       -0.058170866 0.0057653654 0.00939163 -0.04163782
000190 57 cd 28 3d 19 0b 38 ba d2 01 14 bd 01 01 fd bc
       0.041211452 -0.00070206966 -0.03613455 -0.030884268
0001a0 fe 19 03 bd 9d 4a 05 3d 5c 7c b5 bc ba a3 42 3d
       -0.03200721 0.03254186 -0.022154026 0.047519423
0001b0 c8 9c d8 bc a9 78 bf bc 5c 53 59 3d f7 e9 db 3b
       -0.026441947 -0.023372965 0.053058013 0.0067112404
0001c0 43 2d 62 bd c3 93 7f bc 6d 20 0e 3b d7 90 04 bd
       -0.055218946 -0.015599194 0.0021686808 -0.032364693
0001d0 2f c6 29 3d 22 2d 26 bd b3 4e 69 bd 87 f7 e8 bc
       0.04144877 -0.040570386 -0.05695982 -0.028438343
0001e0 8a 1c 36 bb f8 df 67 3d b5 1c a4 3c e4 73 cd 3b
       -0.0027788007 0.056610078 0.02003322 0.0062699188
0001f0 63 d3 28 3d ba 5b 6d 3d ee 58 a1 bb 26 92 2d 3c
       0.04121722 0.057948805 -0.0049239313 0.0105939265
000200 f1 70 3f 3d 7f ed 06 3d 04 cc 40 3d 66 84 01 3c
       0.04673857 0.032941338 0.047069564 0.007905101
000210 a2 d2 4c 3c 38 2c f4 bd b2 3f 2f 3d ae 01 f2 bd
       0.012501391 -0.119224966 0.042785354 -0.118167266
000220 55 d8 64 3d bb 41 35 bd 5c 7b 5f bc 08 d5 4a bb
       0.055870373 -0.04425214 -0.013640251 -0.003094973
000230 48 c8 b8 bc f9 fa de bd 63 ba 10 3c f2 99 14 bd
       -0.022556439 -0.10887713 0.008833501 -0.036279626
000240 ec d9 71 3c d7 b9 51 bd af 52 75 3d 0c 13 1b bd
       0.014761429 -0.05120262 0.059893306 -0.03785996
000250 c4 35 1a 3d a2 1e dc bb b5 1b 6f 3d 5f 0a 56 3d
       0.03764893 -0.006717519 0.058376033 0.052255984
000260 88 57 72 bd a9 2c 83 ba 42 eb 8a bd 1f 7d a5 bd
       -0.059165508 -0.0010007817 -0.06783153 -0.080805056
000270 76 ff d2 bd 66 ab 05 ba 1a 2e 89 bd cd 1b 4a bd
       -0.103026316 -0.0005099088 -0.06698246 -0.04934292
000280 ef 1d 08 39 1f a2 6a bd d7 c7 f2 bd e2 ed b8 bc
       0.00012981122 -0.057283517 -0.11854523 -0.022574369
000290 24 0a 6c 3c 25 d4 55 3d 07 4b 51 bd a2 85 72 3b
       0.014406715 0.05220427 -0.051096942 0.003700592
0002a0 ff 24 83 3c c5 4f d7 3c 07 12 37 bd 29 20 9a bd
       0.016008852 0.026283154 -0.044694927 -0.07525665
0002b0 40 3f eb bd 5c 8b 3e bd 01 0e 03 bb 5b 43 47 3c
       -0.11486673 -0.046519622 -0.001999736 0.012162055
0002c0 46 cf f0 bb 7d f7 8f bd 66 5d ec bd e0 49 ce 3b
       -0.0073489277 -0.070296265 -0.11541252 0.0062954277
0002d0 29 08 7b bd a8 ee 35 bd 8c f7 2e 39 d2 d6 18 bd
       -0.06128708 -0.044417053 0.00016686152 -0.037314244
0002e0 44 00 10 bc 85 c2 01 3d d7 3f 29 bc 14 2c a6 bc
       -0.008789126 0.03167965 -0.010330162 -0.02028469
0002f0 cf 76 d6 bd 6e ee aa bd eb 21 25 bd d8 b8 c5 bd
       -0.1047188 -0.08346258 -0.04031555 -0.09654397
000300 ab dd a8 bb fc 29 b2 bd 4b 34 04 bd 12 fe 88 bb
       -0.005153378 -0.08699414 -0.032276433 -0.004180678
000310 a3 ce b5 bd ba c7 72 ba 39 96 e7 3c 4c 0e 06 bd
       -0.088773035 -0.0009261329 0.028269874 -0.03272848
000320 d8 52 13 3d e3 ef c4 3c b8 a4 5a bd a7 f9 df bd
       0.035967678 0.024040168 -0.053379744 -0.10936289
000330 e2 ef 7d bc 36 2f 53 bd 5d f9 2f bd 57 63 d1 3c
       -0.015499087 -0.051558696 -0.04296242 0.025560064
000340 37 30 91 bc 6c 7d 1b bd 23 5a 6a 3d 91 52 cf 3c
       -0.017723186 -0.03796141 0.057214867 0.025307925
000350 9b b7 6c bd 56 71 54 bc ff b9 e3 bc 55 dc 2e bd
       -0.057792287 -0.0129664745 -0.02779865 -0.042690594
000360 af 44 ef bc 06 23 e4 3c 68 2a 1f bd f5 b4 71 bd
       -0.029207556 0.027848732 -0.0388588 -0.059010465
000370 0f a2 0f 3d c8 38 ca 3c 4f 11 4a bc 25 39 28 3d
       0.03506666 0.024685279 -0.012333228 0.041070122
000380 63 5a c2 3c dc 00 39 3c 0a 11 1a 3d 5f 22 80 bc
       0.02372474 0.011291709 0.037613906 -0.01564139
000390 41 0e 53 bd e6 8e 20 3c 62 f2 60 bc 39 98 29 bd
       -0.051527265 0.009799695 -0.013729664 -0.041404936
0003a0 e7 e1 90 3c b0 0b bf bc 41 c4 76 bd ff 87 60 bd
       0.017685844 -0.023321003 -0.060245756 -0.054817196
0003b0 41 43 5c 3d 9b 35 9c 3c 27 f3 24 3d 36 8d 0f bc
       0.053775076 0.01906853 0.04027095 -0.008761695
0003c0 59 c1 14 39 a6 57 4e 3d 7f 59 c0 bc 34 7f 7a bd
       0.00014186407 0.050376557 -0.023480175 -0.061156467
0003d0 90 43 70 bb 21 96 1c 3d b2 4b 29 3c c5 bc f2 bc
       -0.0036661364 0.03822911 0.010332989 -0.029631028
0003e0 80 e7 5f 3d 4b 7d 87 bb 68 e6 68 bb ae 85 7a bd
       0.054664135 -0.004134809 -0.0035537723 -0.061162643
0003f0 23 a4 09 bd 77 a8 1e bc 3a 91 59 3d 80 a4 15 bd
       -0.0336038 -0.00968372 0.053117014 -0.036533833

linear1.bias f4 [256]
000000 7c a8 79 bc 48 65 29 bd 8c a9 cb 3b 9a e9 0f 3d
       -0.015237924 -0.041356355 0.00621528 0.03513489
000010 f8 89 36 bd 9e d7 77 bd cf f5 e2 3b a8 cf 92 3c
       -0.04456517 -0.060508363 0.0069262753 0.017921284
000020 60 a9 23 bd b0 99 82 bd 53 7f 00 bd 92 1b 9d bd
       -0.03995645 -0.0637697 -0.031371426 -0.07671274
000030 e4 2a 29 3b 94 e7 ae 3b 75 24 23 bc 65 c0 03 be
       0.0025812918 0.005337665 -0.0099574225 -0.12866361
000040 91 99 8b bd 46 c8 2e 3c a0 da 44 bd b6 40 eb 3c
       -0.068164 0.010667866 -0.04806006 0.02871738
000050 6b 76 19 3d db 54 72 bd 03 d9 0e 3c 7c 67 fc bc
       0.037466448 -0.059162956 0.008718732 -0.030811064
000060 33 d5 04 3c 68 20 bc 3c be ff f2 3b a1 c5 b4 bc
       0.008107471 0.022964671 0.0074157408 -0.022066893
000070 a2 4e e3 bd fa f1 af bc a8 db 97 b9 1e d1 80 bd
       -0.110989824 -0.021477688 -0.0002896462 -0.06289886
000080 08 da 79 bd 78 75 34 bd f2 9e 9d bd ab 36 14 3d
       -0.060998946 -0.04405734 -0.07696332 0.036184948
000090 0f e7 a5 bb e4 30 40 ba 9f d3 40 bd f5 ab 07 3d
       -0.0050629447 -0.0007331504 -0.047076818 0.033122975
0000a0 67 2b 8a bd d5 60 b3 3b 3b 6f 82 3c 7e d9 5d bd
       -0.067465596 0.0054741898 0.01592218 -0.054162495
0000b0 74 63 f0 bc d7 9e 8c bc 4d 0e 89 3c c6 86 c5 bb
       -0.029344298 -0.017165584 0.016730452 -0.006028029
0000c0 0b a5 9d bd 43 ea 2b bd 0d de 78 3c 09 e9 29 bb
       -0.07697495 -0.041971456 0.01518966 -0.0025926253
0000d0 22 54 18 bd eb 90 c7 bb d4 d2 02 3d 93 1e 41 bd
       -0.03718961 -0.0060902736 0.031939343 -0.0471483
0000e0 6a 6f 9e bc 75 a8 8b bd a3 18 7b bd 69 aa 28 3d
       -0.019340236 -0.0681924 -0.061302792 0.04117814
0000f0 1c f9 e6 bb c6 ea fc bc 5e 18 43 bd 52 c3 85 bd
       -0.007048739 -0.030873667 -0.04763066 -0.06531395
000100 dd 8a 65 bd 6b df 15 bd 4a d7 b1 3c 56 cb 29 3d
       -0.056040633 -0.03659002 0.021709103 0.041453682
000110 10 09 3f bc 77 48 19 bd 2e 35 bf 3a e7 66 58 3d
       -0.0116598755 -0.037422623 0.0014587992 0.05283251
000120 4c 6e b1 3c bb 23 2c bd 4f 94 16 3c f8 af f0 3c
       0.021659039 -0.042026263 0.009190633 0.029380783
000130 7a e4 5b bc ef f0 67 3c 71 a9 05 3c 60 49 08 bd
       -0.013421172 0.014156564 0.008158074 -0.0332731
000140 2a 6c bd bc 6d 86 b6 bd ee d6 f9 3c f7 15 a9 3c
       -0.023122866 -0.089123584 0.030497994 0.020640356
000150 7f d7 8f bd 61 15 8a bd cd a2 c3 3c aa f9 74 bd
       -0.070235245 -0.06742359 0.02388134 -0.05980841
000160 8f 74 ee bc 18 f0 91 bc dd 71 02 3d 23 22 b0 bc
       -0.029108314 -0.017814681 0.03184687 -0.021500653
000170 89 02 bd bc 65 76 d0 bc 1d f3 34 3d c2 94 66 bd
       -0.023072498 -0.02544708 0.044177163 -0.05629421
000180 13 46 9a 3c 8b 5d 7d bc ee 84 a6 3c 4c 42 8c 3b
       0.018832242 -0.015464197 0.020327058 0.004280364
000190 75 c1 14 bd f9 ba 35 3b c0 24 3d 3c 8c 82 91 bd
       -0.036317308 0.0027729853 0.011544406 -0.07104978
0001a0 9a 14 db bc c2 f4 1f 3c 56 b7 83 3c b4 86 96 3c
       -0.026743222 0.009762945 0.016078632 0.018374778
0001b0 6a e8 11 3c c5 4e b6 bd f9 be 62 bb 08 14 1c 3d
       0.0089055095 -0.08901743 -0.0034598692 0.03810504
0001c0 17 21 55 bd ea 43 9b bc 6f 10 d7 bc b8 54 61 3c
       -0.05203351 -0.018953282 -0.026252953 0.013753109
0001d0 22 04 03 bd 13 63 c4 bd ab 2b 72 3d b4 c8 88 bc
       -0.031986363 -0.095892094 0.059123676 -0.016697265
0001e0 fa 06 9d bd 86 a3 6c 3b 24 8a ad bc 07 91 81 bd
       -0.07667346 0.003610821 -0.021184035 -0.0632649
0001f0 50 3c 11 bd 29 03 8b bd f6 d0 20 3b 7d a6 d8 ba
       -0.03545791 -0.06787712 0.0024538613 -0.001652911
000200 c9 29 f6 3c d8 a2 42 3d 67 e3 82 3b 47 9b 6b bc
       0.030049222 0.04751858 0.0039943936 -0.014380283
000210 3d 8a 60 bd 47 29 4b bd 8e 98 18 3d b4 a4 48 3c
       -0.054819334 -0.049599912 0.037254862 0.0122463
000220 59 0b 95 bd 2a 86 a9 bb 65 8a 97 bc 24 7e c8 bc
       -0.07277555 -0.0051734643 -0.018498609 -0.024474211
000230 8e b1 5a bd 39 01 61 bc 67 80 58 3d 71 a5 b7 bc
       -0.053391986 -0.013733202 0.05285683 -0.022417756
000240 e1 ea 54 bc 83 dc 41 bd e7 4f 3e bb 38 9d 45 3d
       -0.012995453 -0.047329437 -0.0029039325 0.04824564
000250 85 83 08 bd 8c 58 be bc 07 e2 bf 3a 46 2e d1 bc
       -0.03332855 -0.023235582 0.0014639505 -0.02553476
000260 c3 1c 80 3c 9f 9d a3 3c 0c 4f 52 bc 20 39 2b 3d
       0.015638715 0.01997262 -0.012836229 0.041802526
000270 2b f4 d7 bc de a6 95 bc 3d 1a 5d bd 94 1f a9 bc
       -0.026361546 -0.018268045 -0.0539801 -0.02064494
000280 5e 8f af 3c f7 b7 22 bd 28 94 54 3d fa fb f4 3c
       0.021430667 -0.039726224 0.051899105 0.029905308
000290 17 30 89 39 29 44 a3 bc 4a a7 12 3d e6 7c 83 3c
       0.00026166506 -0.019929962 0.03580407 0.016050767
0002a0 87 db 3a bd 79 12 65 3d 5a 75 8f 3c 2e 17 83 bd
       -0.045619514 0.05592582 0.017512012 -0.064009055
0002b0 30 bc b7 bc ce 90 c3 3c ff e6 71 bd fa a4 2d 3d
       -0.022428602 0.02387276 -0.059058186 0.042393662
0002c0 51 fd bd bc 8b f3 be bc 42 b5 7a bd a2 c6 70 3b
       -0.02319208 -0.02330949 -0.061208017 0.0036739488
0002d0 1a 22 ab 3c e4 25 8c bd 0f f1 15 3d 4d 87 42 bc
       0.020890284 -0.068431646 0.036606845 -0.0118730785
0002e0 7c e1 61 bd 51 02 39 bd cf 7c d0 bd a6 c2 84 bd
       -0.05514668 -0.045168225 -0.10180055 -0.06482439
0002f0 89 c9 3c 3d d0 b8 20 3d f1 bc 6f bd 2e e4 d3 bc
       0.046090636 0.03923875 -0.058529798 -0.02586564
000300 86 a3 5e 3c 64 04 3d 3c 57 8e 2a 3d 35 ed 46 bd
       0.013588792 0.011536691 0.041639652 -0.048566062
000310 61 b9 08 3d e0 72 50 bd 8c f2 8a bd 60 01 ac 3c
       0.033379916 -0.050890803 -0.067845434 0.02099675
000320 56 41 52 bd cf 40 1a 3c 54 02 08 bd fc ab 0a bd
       -0.05133184 0.009414866 -0.033205345 -0.033855423
000330 8f 98 a0 3c 7c fb 1c bb e0 a3 c4 3a 9b ee c4 3c
       0.019603996 -0.0023953607 0.0015002452 0.024039557
000340 b6 b7 1c 3c e1 18 94 3c 01 cc 78 bd 10 20 5a bd
       0.0095652845 0.01807827 -0.06074143 -0.053253233
000350 7a 03 26 bd 7d d2 b9 3c e7 75 87 bc 69 b8 b0 bd
       -0.04053066 0.022683376 -0.016535712 -0.086289234
000360 2b 34 fc ba f9 79 0f bd 51 87 75 bd 1b 30 63 3d
       -0.0019241621 -0.03502843 -0.0599435 0.0554658
000370 4a 8e 2e bc f6 da 7d bd c0 0c 71 3d 6f 30 c3 bc
       -0.010654042 -0.061976396 0.05885005 -0.023826806
000380 11 f8 6d bd da 3f 06 3d 88 d6 dc bb e7 59 7e bd
       -0.058097903 0.032775737 -0.0067394413 -0.062097456
000390 19 08 8d bc 3d 97 b7 bd 10 8b eb bc 8b 83 20 3d
       -0.017215775 -0.08964393 -0.028752834 0.03918795
0003a0 af bc c6 bc 60 9c 1c 3c 84 3e 31 bc ca 58 59 3c
       -0.024259893 0.009558767 -0.010818128 0.013265798
0003b0 ac 32 31 bd 20 55 09 3d 75 1d 9a bd 48 81 4f bd
       -0.043261215 0.033528447 -0.0752515 -0.0506604
0003c0 a3 dd 67 bd 8a 52 58 bd 39 1b ab bd 91 c7 fb bc
       -0.056607854 -0.05281309 -0.08354802 -0.03073481
0003d0 18 9e 31 bd f4 e9 a3 3c ac 5f 9c bd 41 00 8a bd
       -0.04336366 0.020009018 -0.076354355 -0.0673833
0003e0 0d 31 c4 3c 76 07 1a 3d 9c a7 96 bc a5 7b 2a bd
       0.02394917 0.03760477 -0.01839047 -0.041621823
0003f0 f6 ab 04 bc 8b 37 94 bd 1f dc 95 bd 4c e9 84 bc
       -0.008097639 -0.072371565 -0.073173754 -0.016224526

linear2.weight f4 [4, 256]
000000 ee c6 3f 3d b4 ef 4b bc b9 a6 2d 3c 4a 94 4f 3d
       0.046820574 -0.012447286 0.010598832 0.05067853
000010 64 91 99 bc d5 de 16 3d dc 61 bd 3a a0 6f 08 bb
       -0.018746085 0.036833603 0.001444872 -0.0020818487
000020 7c 08 7d 3d eb 4e 5d bb 2b c9 ad 3c e9 fb 7f 3c
       0.06177567 -0.0033768963 0.021214088 0.015624025
000030 1e 66 1a 3d cc 9e 5f 3c e5 30 d4 bb d5 b1 96 bc
       0.037695043 0.0136487 -0.0064755552 -0.018395344
000040 99 18 37 3d 10 81 5e 3d 1a 78 6e 3d b0 47 de 3a
       0.044701193 0.054322302 0.058220007 0.001695862
000050 34 8c f9 bc b0 3c d7 3a 33 cc c3 3c a2 fa 53 bd
       -0.030462362 0.0016421285 0.02390108 -0.051752694
000060 10 1f 6c 3d 79 93 9c 3b 54 f4 9c 3c d4 ef 84 3c
       0.05764681 0.0047783223 0.019159473 0.01622764
000070 3f 3a 3d 3c 7f 89 89 3b 65 36 96 bc 52 31 51 bd
       0.0115495315 0.004197299 -0.018336484 -0.051072426
000080 24 db 43 bd 03 fc 4f 3d d1 57 2a 3c 61 ad af 3b
       -0.04781641 0.050777446 0.010396914 0.0053612445
000090 c8 81 60 bd 9c 3b 46 bd 58 08 26 3d b6 ec ca bc
       -0.05481127 -0.04839669 0.0405353 -0.024771076
0000a0 83 7e c2 3b 11 50 2a bd c0 97 75 3d 5a 28 be ba
       0.0059354915 -0.041580264 0.059959173 -0.0014507875
0000b0 e9 50 f3 3c f3 88 e7 bc 64 71 a9 bc 70 3d f3 3b
       0.029701667 -0.028263545 -0.020683952 0.0074230954
0000c0 75 25 1b 3d 80 f1 67 3b 65 f8 af 3c 9f 91 12 3d
       0.03787752 0.0035391748 0.021480748 0.035783406
0000d0 54 1d 48 3d 0a bf 7e 3c d8 05 4d bc 6c 55 39 3d
       0.048856094 0.015548477 -0.0125136 0.04524748
0000e0 fa 8b f5 3c e0 5e b2 3c 18 e3 3d bd 36 9b 2a 3d
       0.029973973 0.021773756 -0.04635915 0.041651927
0000f0 e9 a6 ad bc 40 8b 33 3c 10 ee 3e bc cf bc d4 3c
       -0.021197753 0.010958493 -0.011653438 0.025968937
000100 c5 15 4c 3c 90 fb 6e bc 69 f0 86 3b 27 20 e9 bc
       0.012456362 -0.014586344 0.0041180146 -0.028457714
000110 96 20 e1 3c 80 e9 66 bb 17 0b 6e 3c 2c 31 b8 3c
       0.027481358 -0.0035234392 0.014529011 0.022484384
000120 d0 04 8a 3c f9 9a c0 3a ac d9 1f bb 3c 28 fd 3c
       0.016847998 0.0014694623 -0.0024391217 0.030902974
000130 18 d9 38 bd 7e f4 0f 3d 48 88 c1 3c 18 a1 25 ba
       -0.04512891 0.035145275 0.023624554 -0.00063182553
000140 b4 81 c4 3c dc c2 fc 3b 5a 12 6a bd e2 e7 26 3d
       0.023987629 0.0077136587 -0.057146408 0.040748484
000150 da 41 15 bd 5b 4c 0a bb 85 5b 58 bd 54 8d 4b bd
       -0.036439754 -0.002110264 -0.052821655 -0.049695328
000160 b9 a9 a0 3a 82 e5 45 bc d9 23 3f 3d d5 5e 9e 3c
       0.0012257613 -0.012078645 0.046665046 0.019332329
000170 70 5f d4 3c 80 04 0d bd 42 eb 1e bc 38 3e 39 3d
       0.025924414 -0.03442812 -0.0096996445 0.045225352
000180 ff 07 ca bb 0a 0a c3 bc a7 e5 b0 bc 98 bd d1 3c
       -0.006165504 -0.023808498 -0.021593882 0.0256031
000190 fe 18 dd 3c 53 64 11 3c 0e ad 11 3d bb 10 40 bd
       0.026989456 0.008874017 0.03556543 -0.046890955
0001a0 00 b7 39 bd ac 44 f3 3c 2a b1 35 3d 9b f3 17 bc
       -0.045340538 0.029695831 0.04435841 -0.009274389
0001b0 2d c0 68 bd e4 79 09 bd b9 f8 91 3c 34 ef 51 bd
       -0.056823898 -0.03356351 0.017818796 -0.051253513
0001c0 1c 7b c0 3c f2 5c 45 3d 0c 59 be bc a0 40 62 bb
       0.023496203 0.048184343 -0.02323582 -0.0034523383
0001d0 d8 cf 26 3c 4c b4 ac bb a0 97 69 bd b7 a4 f0 3c
       0.01018139 -0.0052705165 -0.057029366 0.029375417
0001e0 0f 93 1f 3c 9c fc dd bc be 05 0b 3c 55 cc 9b 3c
       0.009739651 -0.027097993 0.008485256 0.019018332
0001f0 4f 11 b8 bc 68 07 19 bd 42 02 aa 3c 33 a4 9d 3c
       -0.02246919 -0.03736058 0.02075303 0.019243335
000200 91 a9 28 bd 17 3a f4 3c 85 0c 28 bd a3 a6 e5 3c
       -0.041177336 0.029812856 -0.041027565 0.02803356
000210 1e be ff 3c 1f c6 68 bb 48 b0 59 3d 28 d2 1f bd
       0.031218585 -0.003551848 0.05314663 -0.03901878
000220 53 4d 7c 3d 88 c5 54 3c d3 3c 12 ba b1 62 e4 bc
       0.06159718 0.012986548 -0.00055785215 -0.027879091
000230 a8 de 5b bc 44 28 e3 bc 48 fd 95 3c d0 6d 90 bc
       -0.013419785 -0.027729161 0.01830925 -0.017630488
000240 fa 6a 49 bd 76 78 7a 3d 00 fb bb 3b f0 4e d4 3c
       -0.049174286 0.061150037 0.0057367086 0.025916547
000250 7a 53 04 bd 8c c8 85 3c e8 b5 23 3c 32 ef 04 bd
       -0.032306172 0.01633098 0.0099921 -0.032454677
000260 80 04 1d bc 44 d0 03 bd a5 99 12 bc 46 09 27 bd
       -0.009583592 -0.03218104 -0.0089477645 -0.04078033
000270 3c 14 14 3d d7 45 61 3c ae 61 a6 3c 19 10 fa bb
       0.03615211 0.013749561 0.02031025 -0.0076313135
000280 30 79 27 bc 00 88 35 b8 38 e7 09 3d 20 04 93 3c
       -0.010221764 -4.3280423e-05 0.033667773 0.017946303
000290 e2 7a 4b 3d 01 18 9b bd 30 c2 e1 3b a8 20 a6 3c
       0.049677737 -0.07572938 0.006889604 0.020279244
0002a0 cf 3c be 3c 4c 43 85 bc 69 19 43 3c 15 f7 21 3c
       0.023222355 -0.016267441 0.011907914 0.009885569
0002b0 5c b8 15 3d d4 12 18 bd a4 2a 48 3d 08 15 a4 bc
       0.036552772 -0.03712733 0.04886879 -0.02002956
0002c0 6c 39 09 bc 92 7d 02 bd 28 9e 5e bc 28 2d 3a 3c
       -0.008375507 -0.031858034 -0.013587512 0.011363305
0002d0 92 57 30 3d b1 d1 15 bd 77 50 99 3c 9c f5 99 bc
       0.043052264 -0.03657693 0.018715126 -0.018793873
0002e0 cf c8 53 bc 71 4d 0c 3d 7a 72 24 b9 b0 fc 49 bc
       -0.0129262945 0.03425354 -0.00015682905 -0.012328312
0002f0 4c d6 65 bd 48 85 75 bc 48 b2 2a 3c 2a ff 97 3d
       -0.056112573 -0.01498539 0.010418482 0.074217156
000300 94 0e 4e 3d 64 d5 52 bc ae 1a a2 bc 00 c1 cb bb
       0.05030687 -0.012868259 -0.019788112 -0.0062180758
000310 99 03 eb 3c 20 4a 8c bc 22 94 1a 3d 39 39 d3 bb
       0.028688239 -0.01712519 0.037738927 -0.0064460305
000320 a8 07 62 bc 1c 85 da bc f5 0d c3 bb 92 83 35 3c
       -0.013795771 -0.0266748 -0.0059525915 0.011078732
000330 9c 58 40 3d f8 ed 04 3d 02 c3 d8 ba ed 45 0f bc
       0.046959504 0.032453507 -0.0016537609 -0.008744699
000340 e2 48 42 3d d6 ce 6f 3d 5e ba aa 3c e0 dc f3 bb
       0.047432788 0.058546863 0.02084082 -0.007442102
000350 e4 d8 9f bc 1d 93 2e bc 0c 79 5e bd 6a 9e 88 3c
       -0.019512601 -0.010655192 -0.054314658 0.0166771
000360 c6 c8 fc bc 6e 12 73 bd e0 c0 8c 3c c8 f5 50 3c
       -0.030857455 -0.059343748 0.017181814 0.012753911
000370 86 45 0b bd 93 40 ce 3c b4 c1 3b 3d 26 51 4f bd
       -0.03400185 0.025177276 0.045839027 -0.0506145
000380 7e fb 05 bd 62 b2 d7 ba 7b 2e a9 bc 18 a7 36 bd
       -0.032710545 -0.001645636 -0.020652046 -0.044592947
000390 a2 94 00 bd 2d 27 f2 3b c2 e1 74 ba e2 fa 33 bd
       -0.031391747 0.007389924 -0.0009341502 -0.043940432
0003a0 e8 2a 0c bd f8 5b e0 bc b0 d4 b5 3c 4b 3e a9 bc
       -0.034220606 -0.027387604 0.022196144 -0.020659586
0003b0 d0 8b 75 3d f4 34 88 3b d7 63 fe 3c f8 fc d8 bc
       0.05994779 0.004156703 0.031053467 -0.026487812
0003c0 19 e5 24 3b a8 1a 08 bd 50 8f 35 bb 2c 71 ba 3c
       0.0025160967 -0.033228546 -0.002770383 0.022759043
0003d0 2a 51 b5 3b 72 87 03 3d e4 a5 a3 3c d0 a0 83 3b
       0.005533357 0.032111593 0.019976564 0.004016973
0003e0 f4 00 87 bc f0 66 dd 3b a0 6f 7c bc bc 5c db bc
       -0.016479947 0.006756656 -0.015407473 -0.026777618
0003f0 e7 73 32 bd b2 94 bf bb 23 3c f8 3c 7b 2a 84 3c
       -0.043567564 -0.0058465833 0.030302113 0.016133538

linear2.bias f4 [4]
000000 b4 f6 ed 3b d6 ca 2b 3c 84 cb ad 3c 66 4a 5a bc
       0.0072620753 0.010485372 0.021215208 -0.013323402
