PacManBetter/model/model.pth (torch, 105875 bytes, 4 tensors)

linear1.weight f4 [512, 46]
-0.13551593 -0.0147167435 0.021064868 -0.05274681 0.1078148 -0.122795574 -0.17072101 -0.08221537
-0.08360248 0.10734167 -0.15938964 -0.17909387 -0.1273114 0.04569633 0.017975511 -0.0051424066
-0.0036642153 -0.07375415 0.073578216 -0.16270585 0.1136533 -0.101066984 0.049921844 0.025587242
0.059208665 -0.10422026 -0.100442186 -0.17340405 -0.014673336 -0.14154783 -0.115703955 0.08848637
0.09758715 0.08819538 0.044457674 0.094801344 0.1138179 0.042101867 0.043085378 0.036316022
0.027225789 0.018444147 0.040330525 0.09112628 -0.056250714 -0.14681734 -0.016270563 0.06174788
0.14766245 -0.03791474 -0.06458711 -0.035842672 0.046457548 -0.026098372 -0.098920986 0.07740464
-0.10545568 -0.0386059 -0.060179975 0.12977658 0.03840015 -0.080706805 -0.00526253 -0.102438435
-0.07329695 -0.17720188 0.091095224 0.059645087 0.07680108 -0.021324396 -0.02176845 -0.008713244
-0.07036444 -0.08200518 0.083192006 -0.03214084 0.02009823 0.015145369 -0.046539236 0.3238143
-0.062456626 -0.104541495 -0.20412663 0.112762414 0.16396448 0.016602408 -0.17232089 -0.056695722
-0.07362017 0.17600463 0.0543044 0.0054797926 -0.06624472 -0.051071625 -0.13618459 0.022397097
0.017449824 -0.037194062 -0.13037568 -0.07628545 -0.15268593 0.10950001 -0.13533568 -0.12294173
-0.00072422007 -0.07144084 0.018250396 -0.04045182 -0.14032364 -0.016667292 -0.063527055 0.06697452
-0.047479264 0.041437835 0.056026034 -0.026747474 -0.01896332 -0.0809791 0.11587278 0.14928433
-0.036229827 -0.08711543 -0.0892692 -0.051074807 0.108663656 0.05774126 0.04564162 -0.04700136
0.10714309 0.051566534 0.10257212 -0.12735173 -0.012927389 0.11399873 0.107385725 -0.12827535
0.11713256 -0.012181359 0.05475357 -0.12779729 -0.053495187 0.06454352 -0.13843761 0.03611089
0.02633399 -0.14695205 0.06290614 0.028635228 -0.11204526 0.1329742 0.12999268 -0.1232592
0.0876327 0.11609567 -0.094455004 -0.071602926 -0.068427764 -0.069984175 -0.049785014 -0.1144019
-0.08218506 -0.14777827 0.059020787 -0.07334501 0.13588417 -0.060181327 -0.10480584 0.12408909
-0.063196465 0.11349917 -0.1434465 -0.005107496 0.027040105 -0.026044907 -0.029595545 -0.11890905
-0.028900133 0.03581316 0.0742299 0.10676672 0.051299002 0.028705804 -0.004414164 -0.14733505
-0.029461106 0.06439757 -0.02676171 -0.03567765 -0.073149115 -0.10027911 -0.080081165 0.07090346
0.056017403 0.053921346 0.10181976 -0.08450435 0.045773014 -0.007491681 -0.047769286 0.00980059
0.0031464659 0.13716936 -0.0015682443 0.011302414 -0.060827527 0.079069264 -0.106814735 -0.0719915
0.100885384 -0.017538749 0.05658518 -0.09304531 0.12508605 -0.005339521 -0.09171524 -0.10402021
-0.037148055 -0.06290381 0.042343765 -0.117825545 -0.1300542 -0.032814525 -0.1269636 0.038572323
0.12655064 0.04661851 0.038099095 0.0104144355 0.091294646 0.03821551 0.1006734 0.038693048
0.05942097 -0.032725 9.9869394e-05 -0.06344351 0.0033514744 -1.2379279e-05 -0.10318833 -0.12039412
-0.1645681 0.04422339 0.100889966 -0.10127145 -0.04505934 -0.14243482 -0.013914116 -0.13447466
0.07701141 -0.10379618 0.11906266 2.9440554e-05 0.0057401187 -0.101124674 0.14684665 -0.14170446
00000000: b0c4 0abe 7f1e 71bc 3b90 ac3c 0a0d 58bd
00000010: 02ce dc3d 3f7c fbbd 7dd1 2ebe 8860 a8bd
00000020: c737 abbd f3d5 db3d 0a37 23be 6264 37be
00000030: eb5d 02be 132c 3b3d 6141 933c a281 a8bb
00000040: 5523 70bb 6a0c 97bd 2db0 963d 5d9c 26be
00000050: 10c3 e83d 35fc cebd d97a 4c3d 569c d13c
00000060: c984 723d 6f71 d5bd a2b4 cdbd d590 31be
00000070: 6f68 70bc eaf1 10be 32f6 ecbd 5838 b53d
00000080: c6db c73d c89f b43d 4019 363d 3527 c23d
00000090: 5c19 e93d 0273 2c3d 4b7a 303d 1cc0 143d
000000a0: 9e08 df3c 2e18 973c 9f31 253d 6aa0 ba3d
000000b0: 2667 66bd 4957 16be d849 85bc 58eb 7c3d
000000c0: d334 173e 7d4c 1bbd 3f46 84bd c4cf 12bd
000000d0: 454a 3e3d 41cc d5bc 1697 cabd 5386 9e3d
000000e0: 26f9 d7bd 3821 1ebd 477f 76bd 27e4 043e
000000f0: 7a49 1d3d 9c49 a5bd 4d71 acbb 3ecb d1bd
00000100: b61c 96bd 6974 35be 2290 ba3d 684e 743d
00000110: e249 9d3d 80b0 aebc c053 b2bc ffc1 0ebc
00000120: 3b1b 90bd 55f2 a7bd 9260 aa3d 1da6 03bd
00000130: 0ba5 a43c 4824 783c ed9f 3ebd fdca a53e
00000140: 85d2 7fbd da19 d6bd 9206 51be fbef e63d
00000150: 4ee6 273e c601 883c e374 30be c639 68bd
00000160: 2cc6 96bd 8f3a 343e 4a6e 5e3d d58f b33b
00000170: 50ab 87bd 7b30 51bd f973 0bbe 1e7a b73c
00000180: eff2 8e3c cd58 18bd 3481 05be 8c3b 9cbd
00000190: b359 1cbe 8b41 e03d 7095 0abe e0c8 fbbd
000001a0: 96d9 3dba 934f 92bd db81 953c cfb0 25bd
000001b0: 00b1 0fbe d889 88bc 791a 82bd f029 893d
000001c0: 9e79 42bd b8ba 293d 8e7b 653d 851d dbbc
000001d0: f758 9bbc 5fd8 a5bd b54e ed3d fedd 183e
000001e0: ba65 14bd 9369 b2bd c5d2 b6bd d133 51bd
000001f0: 0d8b de3d 1982 6c3d b5f2 3a3d 8084 40bd
00000200: d66d db3d 6e37 533d 5511 d23d 7e68 02be
00000210: 66cd 53bc 2b78 e93d 0ced db3d 9d5a 03be
00000220: 32e3 ef3d 5394 47bc 4845 603d 4bdd 02be
00000230: c51d 5bbd 652f 843d 97c2 0dbe 03e9 133d
00000240: 61ba d73c 997a 16be efd4 803d 6d94 ea3c
00000250: fc77 e5bd 642a 083e cd1c 053e 526f fcbd
00000260: c678 b33d 91c3 ed3d a071 c1bd 8ea4 92bd
00000270: db23 8cbd dd53 8fbd 5feb 4bbd 8b4b eabd
00000280: a450 a8bd 3053 17be c8bf 713d e935 96bd
00000290: 3825 0b3e b280 76bd 72a4 d6bd 6c22 fe3d
000002a0: 266d 81bd 4172 e83d a4e3 12be c85c a7bb
000002b0: 3683 dd3c 215c d5bc 5b72 f2bc 9786 f3bd
000002c0: f9bf ecbc d2b0 123d d905 983d 83a8 da3d
000002d0: e71e 523d 6f28 eb3c b1a4 90bb 00df 16be
000002e0: 6b58 f1bc e0e2 833d 603b dbbc ba22 12bd
000002f0: 34cf 95bd 225f cdbd 9801 a4bd d535 913d
00000300: 8172 653d a1dc 5c3d e186 d03d 9e10 adbd
00000310: 7c7c 3b3d c67c f5bb baa9 43bd a792 203c
00000320: f034 4e3b 2076 0c3e 8c8d cdba c32d 393c
00000330: 4926 79bd 11ef a13d afc1 dabd 4870 93bd
00000340: ff9c ce3d 6cad 8fbc ddc5 673d 8a8e bebd
00000350: 8f16 003e 26f7 aebb 33d5 bbbd 8c08 d5bd
00000360: 8f28 18bd b6d3 80bd a870 2d3d 854e f1bd
00000370: ee2c 05be 8668 06bd bf02 02be 03fe 1d3d
00000380: 7e96 013e 0df3 3e3d cc0d 1c3d 4fa1 2a3c
00000390: b0f8 ba3d de87 1c3d db2d ce3d 9a7c 1e3d
000003a0: 6763 733d a60a 06bd f970 d138 acee 81bd
000003b0: 69a4 5b3b 99b0 4fb7 6754 d3bd 3191 f6bd
000003c0: 8a84 28be 9623 353d 669f ce3d 6867 cfbd
000003d0: 2490 38bd 6fda 11be 08f8 63bc bab3 09be
000003e0: 28b8 9d3d 1793 d4bd 20d7 f33d 1cf7 f637
000003f0: 9b17 bc3b 741a cfbd f85e 163e f91a 11be

linear1.bias f4 [512]
-0.12792498 -0.0040904228 0.11375013 0.109952815 -0.08929417 -0.14410813 -0.12868197 0.07242785
0.07890241 -0.102617264 0.00048000697 -0.051251356 -0.057421196 -0.05596199 0.041965015 -0.17192777
-0.1523008 0.031296734 -0.06584512 0.0045220517 -0.15476665 -0.061453108 -0.028399015 -0.03156282
-0.011430263 -0.16895796 0.10131949 0.03227487 -0.05457249 -0.0638202 0.057008922 -0.023673076
-0.10941874 0.08491429 -0.17684512 -0.13885899 -0.058743812 -0.1696388 -0.054121565 -0.028182177
0.07315862 0.14379829 -0.13427664 -0.08152176 -0.11174251 -0.0174377 -0.14521338 -0.06725094
-0.082374394 0.048798747 -0.1440379 0.06665701 -0.16301121 -0.09963292 -0.13099186 -0.12331679
-0.18926926 -0.13850988 -0.1563334 -0.094959214 -0.15763699 0.032493066 -0.027616119 0.03646266
-0.17204161 0.0023853353 -0.016637724 -0.14907455 -0.15433039 0.008852977 0.018989585 0.07113529
0.06297978 -0.13198361 -0.056747265 -0.11618784 -0.089656025 -0.010319762 0.11269396 -0.09404154
0.063428134 -0.0012767863 -0.14135797 0.02214155 -0.16221996 0.07551126 0.14261875 0.053254258
-0.2448099 -0.17542183 -0.01471119 -0.026976211 0.08387942 -0.17664063 0.0060761706 0.025620595
0.12738042 -0.12722099 0.0634176 0.012128348 -0.004066066 -0.15755408 0.030532176 0.062258266
-0.10071536 -0.09932455 -0.11423952 0.0315326 -0.0448952 -0.05999272 -0.055492744 -0.16598275
-0.09059852 -0.094379604 -0.077572614 -0.05984979 -0.1495777 -0.100139394 -0.124299 -0.06264497
0.057767157 -0.05454355 -0.08424625 0.0046931063 -0.10247528 -0.20317708 -0.2227741 -0.13845721
-0.20363227 0.01606516 -0.082640655 0.008736054 -0.04673288 -0.088983506 -0.16414343 0.03513381
-0.1171925 -0.08298457 0.06289479 -0.0027728502 -0.08277453 -0.10795791 0.05512734 0.097071394
0.10637564 0.044964496 0.10159505 0.0767375 0.07544481 -0.090612575 0.06541596 -0.08451059
-0.19227839 -0.019605353 -0.04145863 0.0106261065 0.09942159 0.03545487 0.0512274 -0.10063218
-0.07668241 -0.17852919 -0.018083166 -0.036817316 -0.20651986 -0.13888818 -0.086685695 0.069633536
-0.02918095 0.051508807 0.032221217 -0.034318086 -0.07264724 -0.10546288 -0.1474872 0.0851691
-0.022949448 0.06482077 -0.16456151 -0.0802941 0.070736416 0.052024662 0.094899304 -0.14406487
-0.09128277 -0.1312589 -0.0092833135 0.10616194 0.048893515 0.015087185 -0.12525627 0.07321612
-0.16098368 0.13260183 0.08115514 0.035299882 0.09319495 -0.09962114 0.1130882 -0.06759949
-0.041875567 -0.0699891 0.0056083817 -0.028469022 -0.19146077 -0.17513537 -0.0069447625 -0.050041456
-0.019337082 -0.08890007 0.10299045 -0.008397519 -0.056497086 0.08568001 -0.013327193 0.06734962
-0.14496109 -0.015718479 0.07613385 0.08247941 -0.17344253 -0.038995303 -0.08040224 0.0021898272
0.04496661 0.08907325 -0.015666371 -0.14551543 -0.0703499 0.0010143374 -0.13349636 0.034598015
-0.20728853 0.022434415 0.022776004 0.07419057 -0.078582145 -0.02392173 -0.094125934 -0.09369191
0.006527546 0.101886146 -0.07741938 -0.1703574 -0.042686965 -0.09263603 -0.17630231 0.034552976
0.08014921 0.098185174 -0.15774506 -0.04521448 -0.15311138 -0.010963113 0.09982227 0.102833554
00000000: c4fe 02be f408 86bb d4f5 e83d f12e e13d
00000010: dddf b6bd 1591 13be 35c5 03be 0d55 943d
00000020: 9697 a13d 0029 d2bd 72a9 fb39 f1ec 51bd
00000030: 7d32 6bbd 6638 65bd 82e3 2b3d d50d 30be
00000040: bef4 1bbe 0131 003d ced9 86bd b82d 943b
00000050: 267b 1ebe 41b6 7bbd 0da5 e8bc 0448 01bd
00000060: ff45 3bbc 5103 2dbe 9880 cf3d a732 043d
00000070: 6787 5fbd 2ab4 82bd 3082 693d 0aee c1bc
00000080: ef16 e0bd 8be7 ad3d e316 35be 0d31 0ebe
00000090: 5a9d 70bd cbb5 2dbe 93ae 5dbd 4fde e6bc
000000a0: 30d4 953d dc3f 133e d17f 09be e1f4 a6bd
000000b0: 42d9 e4bd 82d9 8ebc d1b2 14be dcba 89bd
000000c0: e8b3 a8bd 32e1 473d ac7e 13be 7883 883d
000000d0: 69ec 26be 580c ccbd bb22 06be 838d fcbd
000000e0: cdcf 41be 89d5 0dbe dd15 20be fa79 c2bd
000000f0: 976b 21be 7317 053d 333b e2bc df59 153d
00000100: ad2b 30be 4953 1c3b d64b 88bc 00a7 18be
00000110: c908 1ebe 140c 113c 0c90 9b3c 61af 913d
00000120: 8bfb 803d b626 07be d26f 68bd e4f3 edbd
00000130: 949d b7bd 3814 29bc 17cc e63d da98 c0bd
00000140: 9ce6 813d d759 a7ba 25c0 10be 3262 b53c
00000150: fd1c 26be a6a5 9a3d a60a 123e 2321 5a3d
00000160: 72af 7abe c8a1 33be 3407 71bc 37fd dcbc
00000170: f9c8 ab3d 48e1 34be 9d1a c73b 48e2 d13c
00000180: 0370 023e 3846 02be 16e1 813d fbb5 463c
00000190: a23c 85bb db55 21be 9d1e fa3c 8602 7f3d
000001a0: db43 cebd ab6a cbbd 69f6 e9bd 5428 013d
000001b0: 07e4 37bd edba 75bd 5c4c 63bd 62f7 29be
000001c0: b88b b9bd 184a c1bd 64de 9ebd 0e25 75bd
000001d0: e62a 19be e215 cdbd 7990 febd 024c 80bd
000001e0: 419d 6c3d 0f69 5fbd 4c89 acbd a1c8 993b
000001f0: 8fde d1bd a70d 50be e51e 64be bac7 0dbe
00000200: fa84 50be 159b 833c 813f a9bd ab21 0f3c
00000210: fa6a 3fbd fc3c b6bd 3715 28be 78e8 0f3d
00000220: 9f02 f0bd d0f3 a9bd fcce 803d b5b8 35bb
00000230: b185 a9bd 0919 ddbd 35cd 613d 5ecd c63d
00000240: 79db d93d b12c 383d 1111 d03d 8d28 9d3d
00000250: cf82 9a3d 1693 b9bd cef8 853d e313 adbd
00000260: a0e4 44be 689b a0bc 86d0 29bd 1f19 2e3c
00000270: 8c9d cb3d 2039 113d d2d3 513d 3f18 cebd
00000280: ab0b 9dbd 5bd0 36be 2623 94bc c1cd 16bd
00000290: f179 53be b438 0ebe 4588 b1bd 079c 8e3d
000002a0: e30c efbc e6fa 523d 65fa 033d 1f91 0cbd
000002b0: 13c8 94bd ecfc d7bd e206 17be 236d ae3d
000002c0: 7b00 bcbc c0c0 843d d082 28be 3c71 a4bd
000002d0: 41de 903d d017 553d 915a c23d be85 13be
000002e0: 76f2 babd bc68 06be 0a19 18bc 6e6b d93d
000002f0: 9144 483d 3e30 773c 2e43 00be 55f2 953d
00000300: e8d8 24be c6c8 073e ab34 a63d 9c96 103d
00000310: fedc be3d 2b06 ccbd c99a e73d 9a71 8abd
00000320: b785 2bbd 7256 8fbd 84c6 b73b de37 e9bc
00000330: 4b0e 44be b056 33be e490 e3bb 45f8 4cbd
00000340: cd68 9ebc 3d11 b6bd a8ec d23d bf95 09bc
00000350: 7d69 67bd 0079 af3d 4d5a 5abc 99ee 893d
00000360: ae70 14be 0ac4 80bc 10ec 9b3d f7ea a83d
00000370: eb9a 31be 8ab9 1fbd eea9 a4bd 3483 0f3b
00000380: e82e 383d 096c b63d c356 80bc ff01 15be
00000390: 9c13 90bd 84f3 843a 45b3 08be a6b6 0d3d
000003a0: 7243 54be 61c8 b73c be94 ba3c 3af1 973d
000003b0: adef a0bd 81f7 c3bc 19c5 c0bd 8be1 bfbd
000003c0: 06e5 d53b afa9 d03d 0d8e 9ebd 2c72 2ebe
000003d0: 87d8 2ebd f5b7 bdbd 9888 34be 6c87 0d3d
000003e0: 4525 a43d 4f15 c93d ec87 21be d232 39bd
000003f0: 3bc9 1cbe a19e 33bc 9e6f cc3d 669a d23d

linear2.weight f4 [4, 512]
-0.023496866 0.03244456 -0.011297841 0.022616714 -0.0055362163 -0.014855233 0.021197993 -0.004858402
-0.0057735643 -0.008836326 -0.013380455 -0.1768314 -0.017103925 0.018018743 -0.027297601 -0.00789359
-0.033421163 0.024400529 -0.009392491 0.022899346 -0.004515507 0.0012832029 -0.033701647 -0.035539098
0.039378025 -0.034407616 -0.079921536 0.013928442 -0.08096209 -0.008797227 0.0401093 0.002991227
0.005306167 0.010156806 -0.021404844 -0.08279118 -0.019717991 -0.025946321 0.010231584 -0.028259767
0.031415623 0.0005223891 0.041301247 -0.005660636 -0.02286888 0.04614229 0.0051415386 -0.03365068
0.046147183 0.03264502 0.022253532 -0.021373853 0.022368597 0.017588165 0.03392601 0.010801451
-0.20494898 0.052718364 0.021100206 0.03216239 0.0024811071 0.03132365 0.00563065 0.0018363636
-0.021832712 -0.044015206 0.030903202 -0.09656406 0.021970132 -0.032284494 -0.023909135 -0.0065855714
0.030525161 0.008122028 0.07260721 -0.04441136 0.0126681635 -0.011651696 0.007157499 -0.021263603
-0.016594376 -0.015506462 0.019262347 0.012836461 -0.006307593 0.0031493863 0.02675267 -0.031023553
-0.13357893 -0.07509376 -0.027805893 -0.015521892 0.0052184346 0.0059551103 0.016299114 0.017394362
0.0008177595 -0.020421011 0.0007012781 0.030558709 0.030594518 0.0060749543 -0.0010995164 0.017305074
-0.017484874 -0.015132228 -0.008012882 -0.01509935 0.028766477 0.017122578 0.05061181 0.0030312373
-0.028097507 0.007363795 0.013035167 0.0025367395 0.0063029123 -0.0021161856 0.035597436 0.020815663
-0.03666724 0.017802102 0.01931972 0.010247653 0.02812577 -0.02867012 0.009378618 0.021207163
0.0015735552 0.020065904 0.057113394 -0.043426294 0.0425879 -0.030562682 2.1749474e-05 -0.033832625
0.04933387 -0.036985103 0.012798574 0.027560817 0.0003183253 0.030833207 0.019619348 -0.00023983585
-0.018003035 -0.012302082 0.03076546 -0.037400648 -0.08053711 -0.03762463 -0.022138612 -0.0453176
-0.015915787 0.011583268 0.0106112 0.011607105 0.0143095385 0.03597896 -0.04623399 0.008169486
0.0030649777 -0.016415495 -0.009251163 -0.009564277 -0.015830848 -0.029350664 -0.11872683 -0.02471489
-0.02977041 0.003800908 -0.0028756112 0.007524295 -0.050869785 -0.0017707287 -0.006677977 -0.0114557715
0.0038037216 -0.011112797 -0.012637499 -0.027471937 -0.031158514 -0.015371377 -0.0071375296 0.007430096
0.051598895 -0.024903353 0.038233504 -0.034917336 0.023913035 0.035794828 0.05063737 -0.007818767
-0.043090884 -0.0072225365 -0.0018497813 -0.014223643 -0.003241441 -0.022406708 -0.038303323 -0.010838561
0.03797287 -0.012462067 -0.0026825257 -0.004954721 -0.23376079 -0.043145396 0.0072150268 -0.013718325
-0.03306973 -0.028512696 -0.008978225 -0.039631803 -0.036448553 -0.0054501574 -0.0068437066 -0.028202584
0.00859242 -0.010653601 0.109333724 -0.002650655 0.015713515 -0.13218813 -0.003748525 -0.025838356
-0.004893763 0.03975371 0.01190045 -0.014621311 -0.04253003 -0.010591243 0.011415953 -0.014670549
-0.076172434 -0.0015986783 -0.020412903 -0.03487073 -0.0060958653 -0.12068317 -0.026508676 -0.018685194
0.016755464 -0.0195932 -0.017398192 -0.002306444 -0.015625304 -0.001409609 -0.12445344 0.014031338
0.03781272 -0.029088607 0.0076755527 0.020945609 -0.03475234 -0.054128975 -0.013601589 -0.023234425
00000000: 807c c0bc 96e4 043d 941a 39bc b046 b93c
00000010: 2669 b5bb 5d63 73bc 6aa7 ad3c 3b33 9fbb
00000020: 2b30 bdbb 3dc6 10bc b239 5bbc 4a13 35be
00000030: 881d 8cbc 0b9c 933c 389f dfbc 1e54 01bc
00000040: a1e4 08bd 9ee3 c73c f6e2 19bc 6997 bb3c
00000050: d1f6 93bb 2531 a83a bd0a 0abd 7291 11bd
00000060: da4a 213d 00ef 0cbd e7ad a3bd 1f34 643c
00000070: 74cf a5bd 3f22 10bc a649 243d 7608 443b
00000080: 5bdf ad3b bb68 263c 3659 afbc 6c8e a9bd
00000090: a087 a1bc 618d d4bc 60a2 273c 0781 e7bc
000000a0: abad 003d f0f0 083a 7f2b 293d db7c b9bb
000000b0: 8457 bbbc b3ff 3c3d 5a7a a83b 4cd5 09bd
000000c0: d404 3d3d c9b6 053d 0a4d b63c 3818 afbc
000000d0: 593e b73c 0e15 903c 00f6 0a3d 92f8 303c
000000e0: 25de 51be 36ef 573d 57da ac3c b6bc 033d
000000f0: 129a 223b 3a4d 003d 5181 b83b 23b2 f03a
00000100: 84da b2bc 4a49 34bd b628 fd3c 61c3 c5bd
00000110: b5fa b33c bf3c 04bd 17dd c3bc c7cb d7bb
00000120: e70f fa3c 4112 053c 17b3 943d b0e8 35bd
00000130: 218e 4f3c c1e6 3ebc 7489 ea3b 0231 aebc
00000140: eef0 87bc d10e 7ebc 12cc 9d3c 0550 523c
00000150: edaf cebb ef65 4e3b 6a28 db3c 1b25 febc
00000160: eac8 08be c2ca 99bd 2fc9 e3bc 894f 7ebc
00000170: 67ff aa3b 1623 c33b b885 853c 9f7e 8e3c
00000180: e95e 563a f749 a7bc fad5 373a 4256 fa3c
00000190: 5ba1 fa3c 6910 c73b a61d 90ba 5fc3 8d3c
000001a0: 703c 8fbc 2aed 77bc 7748 03bc 4463 77bc
000001b0: ada7 eb3c a644 8c3c 544e 4f3d b9a7 463b
000001c0: be2c e6bc fd4b f13b 7491 553c 6d3f 263b
000001d0: a988 ce3b b4af 0abb 9ece 113d 9c85 aa3c
000001e0: 6330 16bd b7d5 913c 6444 9e3c c6e5 273c
000001f0: 0468 e63c 99dd eabc c6a8 193c a5ba ad3c
00000200: c03f ce3a 4061 a43c bcef 693d c5df 31bd
00000210: a670 2e3d 975e fabc a472 b637 1494 0abd
00000220: 5012 4a3d b17d 17bd 1cb1 513c 39c7 e13c
00000230: e6e4 a639 ec95 fc3c c1b8 a03c 727c 7bb9
00000240: 1a7b 93bc ac8e 49bc d907 fc3c 6c31 19bd
00000250: a4f0 a4bd 491c 1abd 095c b5bc f39e 39bd
00000260: d361 82bc bfc7 3d3c 99da 2d3c ba2b 3e3c
00000270: 8e72 6a3c ad5e 133d da5f 3dbd 4fd9 053c
00000280: cbdd 483b ca79 86bc 3192 17bc 7cb3 1cbc
00000290: b2af 81bc ce70 f0bc 0d27 f3bd e276 cabc
000002a0: 13e1 f3bc a818 793b c074 3cbb 5c8e f63b
000002b0: d65c 50bd cc17 e8ba eed2 dabb fdb0 3bbc
000002c0: dc47 793b 7312 36bc 830d 4fbc d40c e1bc
000002d0: 2440 ffbc 3ad8 7bbc f0e1 e9bb 2a78 f33b
000002e0: 5d59 533d 1e02 ccbc bc9a 1c3d 7b05 0fbd
000002f0: 45e5 c33c 999d 123d 2269 4f3d 491a 00bc
00000300: 1180 30bd 07ab ecbb 5c74 f2ba 480a 69bc
00000310: 5b6e 54bb 468e b7bc f2e3 1cbd 3894 31bc
00000320: 7189 1b3d b32d 4cbc 50cd 2fbb 365b a2bb
00000330: fd5e 6fbe 3ab9 30bd 086c ec3b d3c2 60bc
00000340: 2074 07bd 7593 e9bc 6819 13bc f554 22bd
00000350: 144b 15bd 3c97 b2bb 2c41 e0bb 1b09 e7bc
00000360: 39c7 0c3c 718c 2ebc 5cea df3d 9db6 2dbb
00000370: a1b9 803c 535c 07be d0a9 75bb f6aa d3bc
00000380: dc5b a0bb c9d4 223d 1bfa 423c 398e 6fbc
00000390: f833 2ebd e586 2dbc fa09 3b3c be5c 70bc
000003a0: 4b00 9cbd be8a d1ba f638 a7bc 9cd4 0ebd
000003b0: d3bf c7bb bd28 f7bd b928 d9bc b111 99bc
000003c0: c142 893c eb81 a0bc a786 8ebc b627 17bb
000003d0: a300 80bc a1c2 b8ba 72e1 febd b2e3 653c
000003e0: 83e1 1a3d 3b4b eebc 3483 fb3b 2096 ab3c
000003f0: 7858 0ebd 58b6 5dbd 33d9 5ebc 1f56 bebc

linear2.bias f4 [4]
0.113465376 0.07210694 0.08737388 0.010627916
00000000: 8960 e83d ceac 933d 14f1 b23d b620 2e3c
